A5 CNNs Sun Sensing/best_model_20.pth (torch, 407928 bytes, 14 tensors)

conv3.weight f4 [32, 3, 1, 1]
000000 07 1d ca 3e 04 86 da 3e 6c 2c 44 be c6 63 fa 3e
       0.3947527 0.4268037 -0.1915757 0.48904246
000010 3b 30 33 be e5 04 8d 3d 68 07 a8 be 7f 0a 97 3e
       -0.17498867 0.06885699 -0.3281815 0.29500195
000020 d9 af ed 3e 40 6c ea be 7e 0d f5 3e d5 f8 a7 3d
       0.46423224 -0.45785713 0.47861856 0.08201758
000030 72 5c bf 3e 8d 6f 9e 3c 24 f3 64 3e c1 8f f9 bd
       0.37375218 0.019340301 0.22358376 -0.12185622
000040 07 f9 cf 3e b2 a5 2c 3d d0 1a 78 be c4 9d 3a 3e
       0.4061968 0.042150207 -0.24228978 0.18224245
000050 1c b2 6f be b1 3a b6 bd d3 df 81 be 17 65 bf 3e
       -0.23407787 -0.08897913 -0.25366077 0.37381813
000060 ea 70 ce be fc f6 52 be 1e 9e da bd b2 25 97 be
       -0.40320522 -0.2060203 -0.1067469 -0.29520947
000070 2d e4 e6 3d 1a 27 04 bf e9 28 fc 3e 67 e0 06 bf
       0.1127399 -0.51622164 0.49249962 -0.5268616
000080 4f 6e d3 3e f0 97 69 3d 20 09 6b be 54 07 a5 3e
       0.41295096 0.057029665 -0.229527 0.32232153
000090 df ca 35 3d 82 e1 d5 3e be 14 6e 3c 7d ed 13 be
       0.044382926 0.4177361 0.0145313125 -0.14446063
0000a0 a3 3c 4b 3e f6 c2 f2 bd a4 9b 4c 3e 98 fd f0 3e
       0.1984735 -0.11853592 0.19981247 0.47068477
0000b0 a0 8e 94 3e 72 91 92 be ea db 9d 3e 70 ea 9c 3d
       0.29015064 -0.2862659 0.30831844 0.07661903
0000c0 d2 a1 ae 3e 49 6b 9d be 7d 5e 08 bf 69 62 4e be
       0.34107834 -0.30745915 -0.5326918 -0.20154728
0000d0 d7 a8 d6 be 7f 37 01 3f 2d 05 cc 3d 66 e8 32 3e
       -0.4192569 0.50475305 0.09961925 0.17471465
0000e0 19 96 f0 3d 28 86 97 bc ae 7e e4 3e 0e b5 dc be
       0.11747379 -0.018496588 0.446279 -0.43106884
0000f0 6d 22 81 3d 90 c5 bd be 09 94 54 3e d3 6d 35 be
       0.06305394 -0.3706479 0.20759596 -0.17717676
000100 ef 5b 51 3e 5e af c5 bd 64 02 06 3f b7 a3 9d be
       0.20445226 -0.09652589 0.523474 -0.30788967
000110 7d 4e a0 be b9 68 c6 be 07 44 f8 3e f6 b4 21 3e
       -0.31309882 -0.38751772 0.484894 0.15791687
000120 a7 aa 1c 3f 1f 04 dc be 64 df 06 bf ae 57 d1 be
       0.61197895 -0.42971894 -0.5268462 -0.40887207
000130 e9 b4 ad be a6 92 92 3e f0 bd 2e 3e b2 bf e1 3e
       -0.33927086 0.2862751 0.17064643 0.44091564
000140 ea 9a ae be 82 0c b6 be cc 73 b5 3e 0e 13 43 be
       -0.34102565 -0.35556418 0.35439909 -0.19050238
000150 ef b4 9c 3e 00 8d 41 be ab 91 90 3e 0a df d7 be
       0.3060679 -0.18901443 0.28236136 -0.42162353
000160 63 f4 85 be 00 6e 56 3e 3a 23 93 3d d5 74 4c be
       -0.26163015 0.20940399 0.07184453 -0.19966443
000170 89 fe 98 3e aa c5 df 3e cf b5 c4 be bb 8b 8b be
       0.29881695 0.43705493 -0.3841996 -0.27255043

conv3.bias f4 [32]
000000 5a d2 bc 3e 24 f8 b1 be 30 3e 97 be 9d e4 1d bf
       0.36879236 -0.3475963 -0.29539633 -0.6167696
000010 3c 21 f6 be 06 92 2b 3d d2 38 88 bc 88 e8 c1 be
       -0.4807223 0.041887306 -0.016628657 -0.3787272
000020 2c 7f 09 3e 9e c7 a2 be e4 41 11 bf 6f a0 b9 be
       0.13427418 -0.3179292 -0.56741166 -0.36255214
000030 fd 62 2b bf 00 43 aa be 53 b4 09 3f cf 14 fa 3d
       -0.6694792 -0.33254242 0.5379078 0.12211
000040 bf e8 38 3e 25 0e db be 59 90 04 bf 7f 04 96 be
       0.18057536 -0.4278423 -0.5178276 -0.29300305
000050 7c ae 2e 3e 97 e2 fe be ef 35 8c be 78 88 da be
       0.17058748 -0.4978225 -0.27384898 -0.42682242
000060 58 bf 93 3d 3f 56 aa bd 05 24 2a be 7b 70 9d be
       0.0721423 -0.083172314 -0.16615303 -0.30749878
000070 81 44 fb be 29 a7 6f be b9 66 74 be 49 ee e7 be
       -0.49075702 -0.2340361 -0.2386731 -0.45298985

batchnorm1.weight f4 [32]
000000 00 00 80 3f 00 00 80 3f 00 00 80 3f 00 00 80 3f
       1.0 1.0 1.0 1.0
000010 00 00 80 3f 00 00 80 3f 00 00 80 3f 00 00 80 3f
       1.0 1.0 1.0 1.0
000020 00 00 80 3f 00 00 80 3f 00 00 80 3f 00 00 80 3f
       1.0 1.0 1.0 1.0
000030 00 00 80 3f 00 00 80 3f 00 00 80 3f 00 00 80 3f
       1.0 1.0 1.0 1.0
000040 00 00 80 3f 00 00 80 3f 00 00 80 3f 00 00 80 3f
       1.0 1.0 1.0 1.0
000050 00 00 80 3f 00 00 80 3f 00 00 80 3f 00 00 80 3f
       1.0 1.0 1.0 1.0
000060 00 00 80 3f 00 00 80 3f 00 00 80 3f 00 00 80 3f
       1.0 1.0 1.0 1.0
000070 00 00 80 3f 00 00 80 3f 00 00 80 3f 00 00 80 3f
       1.0 1.0 1.0 1.0

batchnorm1.bias f4 [32]
000000 00 00 00 00 00 00 00 00 00 00 00 00 00 00 00 00
       0.0 0.0 0.0 0.0
000010 00 00 00 00 00 00 00 00 00 00 00 00 00 00 00 00
       0.0 0.0 0.0 0.0
000020 00 00 00 00 00 00 00 00 00 00 00 00 00 00 00 00
       0.0 0.0 0.0 0.0
000030 00 00 00 00 00 00 00 00 00 00 00 00 00 00 00 00
       0.0 0.0 0.0 0.0
000040 00 00 00 00 00 00 00 00 00 00 00 00 00 00 00 00
       0.0 0.0 0.0 0.0
000050 00 00 00 00 00 00 00 00 00 00 00 00 00 00 00 00
       0.0 0.0 0.0 0.0
000060 00 00 00 00 00 00 00 00 00 00 00 00 00 00 00 00
       0.0 0.0 0.0 0.0
000070 00 00 00 00 00 00 00 00 00 00 00 00 00 00 00 00
       0.0 0.0 0.0 0.0

batchnorm1.running_mean f4 [32]
000000 00 00 00 00 00 00 00 00 00 00 00 00 00 00 00 00
       0.0 0.0 0.0 0.0
000010 00 00 00 00 00 00 00 00 00 00 00 00 00 00 00 00
       0.0 0.0 0.0 0.0
000020 00 00 00 00 00 00 00 00 00 00 00 00 00 00 00 00
       0.0 0.0 0.0 0.0
000030 00 00 00 00 00 00 00 00 00 00 00 00 00 00 00 00
       0.0 0.0 0.0 0.0
000040 00 00 00 00 00 00 00 00 00 00 00 00 00 00 00 00
       0.0 0.0 0.0 0.0
000050 00 00 00 00 00 00 00 00 00 00 00 00 00 00 00 00
       0.0 0.0 0.0 0.0
000060 00 00 00 00 00 00 00 00 00 00 00 00 00 00 00 00
       0.0 0.0 0.0 0.0
000070 00 00 00 00 00 00 00 00 00 00 00 00 00 00 00 00
       0.0 0.0 0.0 0.0

batchnorm1.running_var f4 [32]
000000 00 00 80 3f 00 00 80 3f 00 00 80 3f 00 00 80 3f
       1.0 1.0 1.0 1.0
000010 00 00 80 3f 00 00 80 3f 00 00 80 3f 00 00 80 3f
       1.0 1.0 1.0 1.0
000020 00 00 80 3f 00 00 80 3f 00 00 80 3f 00 00 80 3f
       1.0 1.0 1.0 1.0
000030 00 00 80 3f 00 00 80 3f 00 00 80 3f 00 00 80 3f
       1.0 1.0 1.0 1.0
000040 00 00 80 3f 00 00 80 3f 00 00 80 3f 00 00 80 3f
       1.0 1.0 1.0 1.0
000050 00 00 80 3f 00 00 80 3f 00 00 80 3f 00 00 80 3f
       1.0 1.0 1.0 1.0
000060 00 00 80 3f 00 00 80 3f 00 00 80 3f 00 00 80 3f
       1.0 1.0 1.0 1.0
000070 00 00 80 3f 00 00 80 3f 00 00 80 3f 00 00 80 3f
       1.0 1.0 1.0 1.0

conv4.weight f4 [32, 32, 7, 7]
000000 07 2c ce 3c 5c ef a0 bb 9c 45 98 3c e8 b4 06 3c
       0.025167478 -0.0049113464 0.01858788 0.008221842
000010 53 f7 a4 bc 45 45 97 3c de 53 de bb 2b 3f 41 bc
       -0.020137465 0.018465647 -0.0067849 -0.011794846
000020 14 2c c5 bc 4c 9e e1 bc ee b2 1d 3c a0 d4 98 ba
       -0.02406887 -0.027541302 0.00962518 -0.0011660047
000030 39 29 61 3c ad 78 9b bc 83 16 ae 3c 4e a5 65 bc
       0.013742738 -0.018978441 0.021250969 -0.0140164625
000040 e2 d9 a8 bb 67 25 7f 3b 5e d7 d0 3b 8d d3 91 3c
       -0.005152927 0.0038932206 0.00637333 0.01780107
000050 da 49 9b 3c 27 2a 9f bc cc b9 eb 3b 08 27 71 bc
       0.018956114 -0.01942928 0.0071937796 -0.014718778
000060 8c e3 82 bb b8 fc b9 bc a3 c5 90 3c dd fd 83 bc
       -0.003994411 -0.022703514 0.017672366 -0.016112262
000070 35 67 44 3c 39 11 f3 3b db 39 d7 3b 51 9b 6b bc
       0.011987497 0.0074178246 0.006568176 -0.014380292
000080 af d8 c5 3c 69 e4 c8 3b 60 d3 72 b5 2b fc df bc
       0.024151174 0.0061307442 -9.0459616e-07 -0.027341923
000090 a6 0e 21 3c 52 35 9f bb f9 d9 41 bc 93 cf bf 3c
       0.009830153 -0.004858651 -0.011831754 0.023414409
0000a0 7b b2 0d 3c 8d dd 3d bc 3b 16 9b bc f5 da b6 bb
       0.00864851 -0.011588466 -0.018931499 -0.005580301
0000b0 99 2c 04 3c 6a d9 3a bc 8f f4 88 bc b7 fc 13 bc
       0.008067274 -0.011404375 -0.016718177 -0.00903242
0000c0 f8 4f 99 bc 43 f0 2f 3c 73 b8 94 3c 0f 91 ed bc
       -0.01871489 0.010738435 0.018154358 -0.028999833
0000d0 fe 1e 76 3b d1 6b 57 3c 33 6b 88 3b fc 2b 3c bc
       0.0037555094 0.013148264 0.00416317 -0.011485096
0000e0 fc 84 09 3c a1 2d fa 3b 22 6b cc 3b 53 5b 29 bb
       0.008393522 0.007634834 0.006238357 -0.0025841787
0000f0 84 42 a4 bb 32 84 ac 3b 57 1e 8e bb d3 f4 fe bb
       -0.005012812 0.0052647823 -0.004337113 -0.00778065
000100 e6 75 9d 3c d5 2a 98 3c 72 85 ab bb 2a 07 5a bc
       0.019221257 0.018575111 -0.005234414 -0.013307372
000110 c5 25 f5 ba 14 16 d8 bb df 09 be 3b 94 8b da 3b
       -0.0018703273 -0.006594429 0.0057995166 0.006669471
000120 de 8c e0 bc 02 39 46 bc d0 22 8b 3c cf 63 53 3b
       -0.02741092 -0.012098553 0.016984373 0.0032255535
000130 af 3b c2 b9 6e 0b 8e bc 28 dc 9b bc c3 2f cf bc
       -0.0003704703 -0.017339434 -0.019025877 -0.02529133
000140 95 45 31 bc 5c f2 06 3c f8 1d 6c 3c 5b 55 ec 3b
       -0.010819812 0.008236494 0.014411442 0.0072123236
000150 02 c7 ef bc 59 4d 89 bc 58 8a dc bb 6c f9 b5 3c
       -0.029269699 -0.016760515 -0.006730359 0.02221366
000160 22 1a 2b 3b ad 4e bc bb 86 5c 3a 3c 69 e9 7a bc
       0.0026108106 -0.0057466836 0.011374598 -0.015314438
000170 79 ca b2 bc ae ad 38 3c ae 7b 86 bc a7 81 0b bc
       -0.021825062 0.011271877 -0.016416397 -0.008514798
000180 96 72 db bc 6d 37 83 3c d6 5d 94 3c 6f 19 ac 3b
       -0.026788037 0.01601764 0.01811115 0.0052520554
000190 83 a7 9d bc 17 fb bd bc 33 ea b8 bc 1a 1b ac 3c
       -0.019244915 -0.023191018 -0.022572612 0.021009017
0001a0 c9 d7 34 3c f8 30 ab 3c c0 fe 3f 3c 84 2e 99 3b
       0.011037775 0.020897374 0.011718452 0.0046747345
0001b0 d1 b0 45 ba 97 76 6a bc 73 a0 a4 bc be 87 a1 bc
       -0.00075413013 -0.014310501 -0.02009604 -0.019718047
0001c0 60 6d 65 3c ad 26 43 bc 6a 15 a7 bb 04 01 8a bc
       0.014003128 -0.0119110765 -0.0050989883 -0.016846187
0001d0 48 53 28 bc b7 33 bc bc 78 c2 90 bc 23 93 0d 3c
       -0.010273762 -0.022973878 -0.017670855 0.008641037
0001e0 a9 b0 18 bc c3 86 3d 3c 16 da 99 bb b0 7e a8 bc
       -0.009319463 0.011567774 -0.0046951873 -0.020568222
0001f0 6a f3 10 bc cd f7 26 bc 22 77 3d bc 36 9f be bc
       -0.008847097 -0.010190916 -0.011564048 -0.023269277
000200 5a 8e 56 3c 8b 8f 4e bc a1 7b 83 3c b3 0d 64 3c
       0.013095463 -0.0126074655 0.016050162 0.013919282
000210 32 e3 98 3c 85 71 b8 bc d8 ab 6a 3c 09 ae 45 bc
       0.018663023 -0.022515068 0.014323197 -0.012065419
000220 1e ec 12 3c 6e 53 d4 3c ab c8 29 ba a0 d0 b5 3b
       0.008967428 0.025918689 -0.000647674 0.0055485517
000230 b3 34 2d bc 6c e6 ab bc ef ec f1 3b 20 2f cf bc
       -0.0105716465 -0.020983897 0.007382981 -0.025291026
000240 e4 0a 73 3c 59 d1 9d 3c a5 04 cb 3c 34 4a 09 bc
       0.0148341395 0.019264864 0.024782488 -0.008379508
000250 0b 96 d7 bc 3e ed e3 3b 80 c9 96 3c 02 31 f1 bc
       -0.026316663 0.0069557717 0.01840663 -0.029442314
000260 69 73 68 bb 93 b6 66 bc 43 30 b8 3a 32 8f 21 bc
       -0.003546918 -0.014081615 0.0014052469 -0.009860801
000270 49 98 53 bc 9e ed 4c bc ad e1 86 bc 22 99 a6 3c
       -0.012914726 -0.012507824 -0.016465032 0.020336691
000280 85 bd d7 3c 4f cd 03 3b a0 bd b0 bb a8 01 fd bb
       0.026335487 0.0020111387 -0.005393699 -0.0077211447
000290 98 08 d0 bc d8 8c eb bc 46 5b 5e ba 4a 9b 5f bc
       -0.025394723 -0.028753683 -0.0008482229 -0.013647864
0002a0 23 59 90 bc c9 78 b9 bb 15 5b 59 bc 42 6b 06 bb
       -0.017620629 -0.0056601507 -0.013266345 -0.0020510708
0002b0 ef 49 bb ba 9b a3 05 bc af 48 e6 bb d9 20 9c bc
       -0.0014289002 -0.008156682 -0.0070277075 -0.019058632
0002c0 17 61 8b bc b8 25 a4 3c 5c 7a 8f ba 28 de 3a 3c
       -0.01701407 0.020037517 -0.00109465 0.011405505
0002d0 8f 46 6b bb f3 d8 9b 3b 5b e7 bd 3c b6 64 ac 3b
       -0.003590021 0.004756087 0.023181608 0.005261029
0002e0 88 1d a9 bc 34 fd 38 3c bd 02 ef 3c 45 db 35 3c
       -0.020643964 0.011290837 0.02917611 0.011099641
0002f0 a1 16 c6 3c 68 70 8f 3c 15 d0 d0 ba b8 d1 a3 3a
       0.024180712 0.017509654 -0.0015931154 0.0012498414
000300 29 98 93 bc 0b b0 b5 bb c6 c5 9d 3c 5b a6 56 3c
       -0.018016892 -0.0055446676 0.019259345 0.013101186
000310 d2 1d 73 bc 01 82 b7 bc 6a 8a af bc c6 b0 d2 bc
       -0.014838653 -0.022400858 -0.021428306 -0.025719058
000320 57 bc a3 bc e2 c1 be bb a7 0c 78 3c d9 c1 5d 3a
       -0.019987268 -0.0058214525 0.015139735 0.00084593665
000330 51 ef c0 bc 34 62 bd bc 73 cf 61 3c 7c 13 82 bc
       -0.023551615 -0.023118116 0.01378237 -0.015878431
000340 ba 59 33 ba 8a 5f 5c 3c c2 21 2c bc 06 15 70 b9
       -0.00068416784 0.013450513 -0.010506095 -0.00022896015
000350 f1 43 8c bb 12 73 0c bc 35 8e a4 bc 0e 47 d3 bc
       -0.00428056 -0.008572357 -0.02008734 -0.025790717
000360 5e 7d c8 bc 51 5f 5f bc 28 dc c1 3c 08 7e 88 bc
       -0.024473842 -0.013633565 0.023664549 -0.016661659
000370 7d 06 92 bc 6d fe 1b 3b cd 39 72 3a a7 8a 79 3c
       -0.01782536 0.0023802773 0.00092401804 0.015230811
000380 e4 07 87 3c e9 9c 42 3c ab 0a df bc 40 2c 03 3b
       0.016483255 0.011878231 -0.027226767 0.0020015389
000390 50 be 84 3c 8e fa 28 bb 5d 54 92 bc 99 4b 95 3c
       0.01620403 -0.0025784108 -0.017862493 0.018224524
0003a0 06 9e 3f bc cc 0a 85 bc 54 31 c7 bc f9 5f b3 3a
       -0.011695391 -0.0162405 -0.024315514 0.0013685218
0003b0 3a f5 52 3c 22 48 04 3c c9 c0 3b ba 30 c6 bc bc
       0.012875849 0.008073838 -0.0007162211 -0.023043722
0003c0 d8 80 f6 bc 96 5f 56 bb e0 cd a6 3c 15 ad 5e 3c
       -0.030090734 -0.0032710782 0.02036184 0.013591071
0003d0 a7 2a 75 bc e1 5d 8e ba 09 81 a4 bc a1 13 61 bc
       -0.014963782 -0.0010861718 -0.02008106 -0.01373759
0003e0 58 c2 d1 3b be 90 5e 3c 4e 20 ba 3c fa 43 ba bc
       0.0064013414 0.013584314 0.022720482 -0.022737492
0003f0 93 72 88 3c 5c ad 9c bc 6e 55 f6 3b 70 e7 b5 3c
       0.016656196 -0.019125633 0.007517508 0.022205085

conv4.bias f4 [32]
000000 7a 8e 3b 3d c2 b1 ba bb 2e d4 2b 3d 7a be 3b bd
       0.045790173 -0.00569746 0.041950397 -0.04583595
000010 98 d7 db bb 03 69 41 bd c2 0b ce bc 96 75 a0 3c
       -0.0067090504 -0.047219288 -0.025152091 0.01958732
000020 37 71 de 3c ff 4e 65 3b f3 4a 06 3d 1b 97 c7 3d
       0.027153594 0.0034989712 0.03278632 0.09745618
000030 33 35 75 3d 9b 08 eb 3b e5 84 dd bc 3c 49 31 3d
       0.059865188 0.0071726567 -0.027040908 0.043282732
000040 b8 fe 94 ba 95 d1 70 bd 7f 13 a8 3b 87 b2 69 bd
       -0.0011367416 -0.058793623 0.0051292772 -0.057055023
000050 bb 0a 02 bc 91 5c b2 bc bf 25 57 bd 0e f5 74 3d
       -0.007937129 -0.021772655 -0.05252623 0.059804015
000060 6c 92 95 bd 97 52 c7 3c 9b 75 66 3d 1d 64 f9 bc
       -0.073033184 0.024331374 0.0562645 -0.030443246
000070 7f 00 2b 3d b3 0c 84 bb 18 db 8d 3d 6e 77 8a bc
       0.04174852 -0.004029834 0.069265544 -0.016902652

conv5.weight f4 [32, 32, 5, 5]
000000 52 79 f7 3c c0 b6 b4 3c 7d 93 92 3b b7 b3 fa bb
       0.030209217 0.022059798 0.0044731484 -0.007650818
000010 eb 04 96 bc 82 96 95 3c 17 12 34 3c b5 3e 94 bc
       -0.018312892 0.018260244 0.010990641 -0.018096307
000020 ec d4 0c bb 78 d7 4d 3b 3c 8b 02 3d ff d8 66 bc
       -0.0021489216 0.0031408947 0.031871065 -0.014089822
000030 70 68 f9 3b f7 f5 84 bc ee cb 13 3d 7e 94 0d bc
       0.007611327 -0.016230566 0.036083154 -0.00864136
000040 a0 60 37 b7 d5 90 01 3d 17 e0 fd 3c cb 37 bb 3c
       -1.0930147e-05 0.031632263 0.030990643 0.022853753
000050 b9 8f 2d 3d fa a8 79 bc 21 e8 02 bc e4 69 29 3d
       0.042373393 -0.015238041 -0.007989914 0.04136075
000060 dc 37 1e 3d f2 36 f8 3c c8 ef b9 bc 9e 19 35 3c
       0.03862749 0.030299637 -0.022697344 0.011053471
000070 10 10 f9 3c fd fc 9f 3c db 51 ea 3b 95 7f 08 3d
       0.030403167 0.019529814 0.007150871 0.033324797
000080 a4 c1 f3 3c 30 96 a2 3c d8 b5 94 3c 6a 9e 09 bd
       0.029755421 0.019847006 0.018153116 -0.03359834
000090 f2 5b 14 bd c0 cc c7 3b ee 1c 00 bd 5c 1f d0 3a
       -0.0362205 0.006097406 -0.03127759 0.0015878486
0000a0 60 44 55 bc 40 fc 8f b9 88 37 88 bc f7 f6 ae 3c
       -0.01301679 -0.00027463026 -0.016628042 0.021357996
0000b0 b8 22 0e 3d 08 eb f6 bc ad 79 07 3d 8e d0 bd bc
       0.03470108 -0.030141369 0.033075023 -0.023170736
0000c0 ed 16 9a bc ce e2 ad 3c 06 fe f3 bb f4 98 e8 bc
       -0.01880976 0.021226313 -0.0074460534 -0.028393246
0000d0 c3 43 8f bc d4 bf 18 3d a3 eb d9 bc 1c 01 5b bc
       -0.017488366 0.037292317 -0.026601618 -0.013366964
0000e0 45 02 bf bc 1d a5 1b 3c 68 4d a6 3c 86 da b3 bc
       -0.023316512 0.009499815 0.020300582 -0.021954786
0000f0 93 c6 85 ba 8a 8d 1d bc 6d a5 f1 bc a9 22 e2 3a
       -0.0010206274 -0.009616265 -0.029497826 0.0017252761
000100 53 e5 1d 3c 0c 69 39 3c 6d b0 d2 3c 0e 5a b9 bc
       0.009637195 0.011316549 0.025718892 -0.02262595
000110 aa 26 0a bc fb 00 f3 bb 9f 19 f4 bc a1 68 4b 3c
       -0.00843207 -0.0074158884 -0.029797373 0.012415082
000120 8a d2 39 3c a2 d3 7a bb 44 50 db 3c 54 81 71 bb
       0.0113417 -0.0038273116 0.026771672 -0.0036850767
000130 9c 15 7d 3c ea d7 b2 3c 49 b7 fb bc ef 15 96 bb
       0.015447047 0.021831471 -0.030727046 -0.0045802514
000140 82 a5 3c 3c 5c 4c 72 bc 00 c3 b8 ba f4 d8 8b 3c
       0.0115140695 -0.014788713 -0.00140962 0.017071225
000150 30 da 2c bc eb 96 e5 bc 6f b2 8b 3c 4e d1 16 3c
       -0.010550067 -0.028026065 0.017052857 0.009205176
000160 3b b0 86 bb c7 0a f4 bc 52 5f f0 bc 21 7d 15 bc
       -0.004110364 -0.029790295 -0.029342327 -0.009124071
000170 30 12 19 ba 82 e2 8a 3c d1 10 e7 bb 59 41 fd bb
       -0.0005839197 0.01695371 -0.007051565 -0.0077287373
000180 78 63 bf 3b b6 cb 18 bd b1 78 6b bc 3a b5 be ba
       0.005840715 -0.03730365 -0.014372037 -0.0014549859
000190 0a 5e 18 bc c9 ce 63 3c d0 d0 17 bc 36 9a 03 bd
       -0.009299764 0.013904282 -0.009266093 -0.03212949
0001a0 0f 5d 00 bd e1 0f 9f bb 3e b8 12 bd 4e 3e f1 3c
       -0.031338748 -0.004854188 -0.03582024 0.029448655
0001b0 52 27 51 3c 8e 39 fb 3c a0 73 8b bc 73 e2 8d 3c
       0.012765722 0.030667093 -0.017022908 0.017319893
0001c0 ff f6 16 bd 40 13 e2 3b 16 44 f6 3b 50 fa 60 bc
       -0.036856648 0.0068992674 0.0075154407 -0.013731554
0001d0 7c b6 f4 bc 96 4c b4 bc ec 84 93 bc 40 f2 c1 3c
       -0.029872172 -0.022009175 -0.018007718 0.023675084
0001e0 d5 77 aa 3a eb 4e 59 bc 42 08 4b bc f7 1f 33 ba
       0.0013005683 -0.013263444 -0.012392106 -0.0006833071
0001f0 dd 42 21 3c 8c d2 02 3d 5e 46 8d 3c 9e 2f d5 3c
       0.009842602 0.031939074 0.017245468 0.026023682
000200 26 f0 85 bc 64 20 68 3c 49 2e 0d 3d 3d 42 0c 3d
       -0.016349863 0.014167879 0.03446797 0.034242857
000210 93 1e 34 3c 60 7f 13 3d 14 47 6d bc b8 ad e2 bc
       0.010993618 0.036010146 -0.014482278 -0.027670726
000220 a7 9d 6e 3c db 78 c9 3c 5c 47 cd 3c 8a 52 d6 bc
       0.014563954 0.024593761 0.02505844 -0.026162405
000230 8d 1a 1f 3d 3e f0 c8 bc 7e 46 01 3d 52 bc 68 bc
       0.03884368 -0.024528619 0.031561367 -0.014205055
000240 f0 fc 02 3d 03 c9 93 3c 87 a9 c0 3c 1b 56 d4 38
       0.0319795 0.018040186 0.023518337 0.00010124986
000250 c5 02 24 bd 76 f6 27 bd 8d 83 0d bd 32 d3 95 bc
       -0.040041704 -0.041006528 -0.034549285 -0.018289182
000260 e8 f3 a2 bc 62 42 42 3d 88 49 1c 3c fc 81 1a bd
       -0.019891694 0.04742659 0.009539016 -0.03772162
000270 ab 01 eb bb 21 bf ee 3b 1d e5 8d 3c 9f 1d 93 3b
       -0.0071718297 0.007285968 0.017321164 0.004489615
000280 2b 9c 15 bd ac da e3 bc d6 f8 22 bc 32 61 53 3c
       -0.036525887 -0.027814232 -0.009947022 0.012901591
000290 e9 55 a7 bb 5a 09 05 bc ee 63 d5 3b 8e 17 24 3d
       -0.005106677 -0.008119905 0.0065121567 0.040061526
0002a0 27 34 f1 3c 39 45 c5 3b 59 aa 77 3a 01 fa de 3c
       0.029443813 0.006020215 0.0009447686 0.02721882
0002b0 be 3a f2 bc 64 5b 46 bc ab ae 96 3c f6 32 e9 3b
       -0.029569026 -0.01210675 0.018393835 0.0071166707
0002c0 fa c9 90 bc 40 a9 13 3b f6 44 a6 3a 54 47 3a bc
       -0.017674435 0.00225313 0.0012685347 -0.011369545
0002d0 f4 a5 df 3b 74 3d 6c 3c 2a 0f a5 bc 5c 8f 6c bb
       0.006825203 0.014418948 -0.020148832 -0.003609619
0002e0 15 e7 01 bd 4c d5 b2 bc fc 82 14 bd 81 f2 d2 bc
       -0.031714518 -0.021830224 -0.03625773 -0.0257504
0002f0 fa f5 a6 bc aa 2b e7 ba be bf 91 3b 00 d4 de 3b
       -0.020380963 -0.0017636914 0.0044479063 0.0068001747
000300 5c 6f e6 3c 9b 90 18 3c 80 cd 33 b9 b1 0c a3 3c
       0.028129272 0.00931182 -0.00017147325 0.019903513
000310 6b f6 35 bc dd 40 99 3b b0 3e 70 3c ba 73 08 3d
       -0.011106114 0.0046769218 0.014663383 0.03331349
000320 c3 57 03 3d b1 5d f4 bc b5 32 91 3b 5e ce 17 3d
       0.032066118 -0.029829832 0.0044310936 0.03706204
000330 5d 91 f9 3b f7 0c 04 bd ba f1 d2 3c 4a f2 c6 bc
       0.0076162056 -0.032238927 0.02575003 -0.024285454
000340 82 91 a4 bc b2 79 a0 bc 77 94 22 3d c5 02 06 3d
       -0.020088915 -0.019589279 0.03969237 0.032717485
000350 03 d3 af bb 7f 7c 89 3c 32 59 80 3c 73 98 f5 bc
       -0.0053657307 0.016782997 0.015667532 -0.02997992
000360 3a 18 7d bc 27 14 2d bc 1d ec 20 3c 8c 93 9f b9
       -0.015447671 -0.010563887 0.009821919 -0.00030436774
000370 e6 df 04 3d 44 e0 55 bc 20 fe 0e bc 4f 12 8b 3c
       0.03244009 -0.013053957 -0.00872758 0.016976504
000380 4a d3 24 3c 65 0b 4f bb a0 44 cb bc f6 7d af 3c
       0.010060141 -0.0031592485 -0.024812996 0.021422368
000390 e0 2d 8a 3c d3 07 63 3b 1b db 12 3b 0e b0 f1 3c
       0.016867578 0.0034642115 0.002240843 0.029502895
0003a0 48 78 3a 3b b3 c2 b2 bc 07 7c 06 bd 5e 18 a7 3c
       0.002845304 -0.021821355 -0.032833125 0.020397361
0003b0 f4 7a af bc a7 69 2a 3c c8 15 52 bc b9 a8 24 3c
       -0.021420933 0.010401166 -0.012822576 0.010049992
0003c0 04 d8 5c 3c 0d 98 af 3c c2 94 05 bc e5 c2 a9 bc
       0.0134792365 0.021434808 -0.008153142 -0.020722816
0003d0 15 a2 1c bb 5e 5e a5 bc 9d 56 b2 3b 40 ae 3c bc
       -0.002390032 -0.0201866 0.005442454 -0.011516154
0003e0 ce 6b 41 bc 2e e8 96 3c 72 4e b1 bc 9f 8f 0f 3d
       -0.011805488 0.018421259 -0.021643851 0.035049077
0003f0 25 01 55 3c ca 28 aa bc d4 b7 d6 3c fe 56 0c bc
       0.013000761 -0.020771403 0.026210703 -0.008565662

conv5.bias f4 [32]
000000 4d 74 a2 bb 1e db 71 bc 92 98 4c 3d 6e 12 a7 bc
       -0.004957712 -0.014761714 0.04995019 -0.02039453
000010 65 e3 06 bd 65 34 9f 3c e1 d0 75 bc 6e b0 9c 3c
       -0.032931704 0.019434163 -0.015003414 0.019127097
000020 a6 de 7d bc 6e ae 1b 3d 58 b0 53 bc 47 d4 ba bc
       -0.015494978 0.038008146 -0.012920462 -0.0228063
000030 13 96 c3 3c cd ab 85 3d 4f 15 9c 3c 4f 18 7c bd
       0.023875272 0.06526909 0.01905313 -0.06154662
000040 1b c8 00 bc 18 ec 19 3d b2 71 02 3d a2 71 f7 bc
       -0.007860209 0.037578672 0.03184671 -0.030205552
000050 9a 07 23 3b 72 7f e9 3c 3b 55 87 3c 84 59 58 3c
       0.0024876357 0.028503153 0.016520133 0.013204936
000060 c7 57 fa bb 62 7f 75 bb 00 a0 7f bc aa 8c ca b9
       -0.0076398584 -0.003745996 -0.015602112 -0.00038633245
000070 12 75 81 bd e5 60 46 bd eb aa a4 38 6d 6e a4 3c
       -0.063211575 -0.04843225 7.851965e-05 0.020072186

conv6.weight f4 [32, 32, 3, 3]
000000 31 75 a4 bc 44 91 6f bc e3 0d af 3c 5e 0d 60 3d
       -0.020075412 -0.014622036 0.021368926 0.054700248
000010 c5 1c 92 bc 0e 86 3e 3b 17 b9 9c 3d 54 d7 31 bd
       -0.017835984 0.0029071602 0.076524906 -0.043418244
000020 33 35 7d 3d 4b 6c f0 bb 15 f0 2b bd 5b b9 8f 3d
       0.061818313 -0.0073371283 -0.041977007 0.070177756
000030 b7 6f f1 3c e7 89 a7 ba 86 4d a5 bd 76 e4 90 b9
       0.029472215 -0.0012782187 -0.08071427 -0.00027636037
000040 ec 1f 70 3c d2 60 4c 3d 00 42 3e 3d 4f f4 61 bd
       0.014656048 0.049897023 0.04644966 -0.05516463
000050 85 24 3b bc 02 14 c9 bc 3f 78 8b 3c 22 cc b5 bc
       -0.011422281 -0.024545673 0.017025111 -0.022192065
000060 0e 6e 9c 3d 01 62 aa 3c 88 56 7b 3d 07 6a 7f bd
       0.07638179 0.020798685 0.06136182 -0.062356975
000070 30 27 be bc 5d 1b 31 3c 78 77 cd bc fb 61 85 3c
       -0.023212045 0.010809747 -0.025081381 0.016282072
000080 31 2d 34 bd 6e 7b f8 3c 4a 73 19 3d 36 56 a2 bc
       -0.04398841 0.030332293 0.037463464 -0.0198165
000090 35 21 5e bd 91 26 ca bc 39 7f 4a bd 17 ba 83 3c
       -0.054230887 -0.024676593 -0.049437735 0.016079945
0000a0 84 6e 52 3c f4 70 50 3d 8e 9c 05 bc a6 1f 6c bc
       0.012843732 0.05088897 -0.008155001 -0.014411842
0000b0 5e 5b bf 3c bc e8 61 bd 08 b6 78 3c c2 66 af 3b
       0.023358997 -0.055153593 0.015180118 0.005352826
0000c0 51 05 46 3d 88 01 4a 3c cd 98 32 3a f7 87 eb 3c
       0.048344914 0.012329467 0.000681293 0.028751357
0000d0 79 3f 19 3d ae b2 b3 ba fe 68 bf bb 39 e7 9f 3c
       0.037414048 -0.0013709867 -0.0058413735 0.019519435
0000e0 7c 10 a5 3d fd bd 89 3c a8 52 32 3c e2 7b 44 bc
       0.08059785 0.016814226 0.010883965 -0.011992427
0000f0 3c 34 49 3d 2b 7b fd bc 4f 23 cb bc 8e ab 8b bc
       0.04912208 -0.03094252 -0.02479711 -0.017049577
000100 fe cc 5e 3d b5 c5 92 bd ae be fe 3c ce 83 61 bc
       0.054394715 -0.07166616 0.031096783 -0.013764335
000110 43 e5 fc 3a a4 42 89 bd 38 e8 90 bd ee e4 b8 bc
       0.00192944 -0.06702164 -0.07075542 -0.0225701
000120 54 cc 1e 3d d5 d1 04 3d 45 55 90 3c 3c 81 4e bd
       0.03876908 0.032426674 0.017618785 -0.050416216
000130 30 29 b1 3c eb a7 94 bd 93 a4 55 3c 41 45 a6 bc
       0.021626085 -0.0725859 0.013039726 -0.020296695
000140 02 36 9f bc 05 06 16 3d 11 42 10 bc 9c 33 75 3d
       -0.019434933 0.036626834 -0.008804814 0.05986367
000150 ae c5 b0 3c 58 e1 2b bc 0d 12 1e bc 94 85 1f 3d
       0.021578636 -0.010490738 -0.009647858 0.03894575
000160 3b 1f 99 3d 4c 98 bc bc fe c9 bf bb 97 e6 67 bc
       0.0747666 -0.02302184 -0.0058529368 -0.014154098
000170 b2 5a ce 3c 65 ff 97 bd b6 c9 f9 3b 68 52 07 bd
       0.025189731 -0.074217595 0.007622923 -0.033037573
000180 d1 75 2e 3c 5f c9 cb bc 1c e4 ba bc 0c dd 23 3d
       0.010648207 -0.024876295 -0.02281385 0.04000573
000190 e6 40 86 bc 61 a4 16 bc e1 83 a9 3b e5 62 ec bc
       -0.016388368 -0.009194464 0.005173192 -0.02885575
0001a0 11 07 b9 bc 54 61 74 3c 77 23 74 3d 57 17 27 3d
       -0.022586377 0.014915783 0.059604134 0.040793743
0001b0 62 8b 23 bd 03 15 94 bc 8d 98 0b bd a7 ca 81 3c
       -0.039927848 -0.018076425 -0.03408103 0.015843702
0001c0 b2 68 3a bd 36 8c 47 3c 57 8b 07 3d 1a f6 a2 bc
       -0.04551 0.012179425 0.03309187 -0.019892741
0001d0 d4 94 3a 3c 34 92 ec 3c 12 fb c6 bc 1c 95 54 bd
       0.011388022 0.028878309 -0.024289642 -0.051900014
0001e0 f3 69 e2 bb 1c dd 2e bd 61 d4 2f bd fa 8f 5a 3d
       -0.006909603 -0.042691335 -0.04292715 0.053359963
0001f0 9d 48 18 3d 0e 75 6c 3d dd 25 09 3d b7 60 31 bd
       0.037178624 0.05772882 0.033483375 -0.043305125
000200 4e c6 7e bb 97 46 08 bc 38 d1 3b 3d 9a 45 88 bd
       -0.0038875523 -0.008317611 0.045853823 -0.066539004
000210 79 f8 d6 bc 5c 94 7d 3c f8 6d d6 3a fe 26 85 3b
       -0.026241528 0.015477266 0.0016359678 0.004063486
000220 8f 4b 69 3d f2 85 1e 3b 1d 92 10 3d d8 fe 96 3b
       0.056956824 0.0024188724 0.035295594 0.0046080165
000230 e0 61 12 bd d5 41 37 bd e7 cf 07 3d ab cd 60 bd
       -0.035737872 -0.044740517 0.033157256 -0.05488364
000240 89 66 a9 3c 01 23 cd bc d4 51 30 bc 9d c9 38 bc
       0.020678775 -0.025041105 -0.010761697 -0.011278537
000250 44 9f 96 ba 79 4a 2c bb b8 da d1 3c d1 32 66 3d
       -0.0011491557 -0.0026289506 0.025616989 0.056200806
000260 6b 28 de 3c 48 35 02 bc 0a 71 f7 bb bb 42 d2 3b
       0.027118882 -0.007947274 -0.007551317 0.0064166463
000270 8e 5d 21 3d e6 12 69 bb 44 d0 62 bd 8e 97 1d 3d
       0.03939586 -0.0035564243 -0.0553744 0.038474612
000280 1c eb d6 bb c6 8c 4c bb e7 5d c4 3c 87 c2 49 bd
       -0.006558789 -0.0031211837 0.023970557 -0.04925778
000290 ee 7a d2 3c 61 02 0f 3d 28 2b 30 3c 74 3d 3d bd
       0.025693383 0.034914378 0.010752477 -0.046201184
0002a0 ea 14 99 bb 77 2c ee bb 73 2a de 3c a8 e0 49 bd
       -0.0046716826 -0.007268484 0.02711985 -0.049286515
0002b0 28 6f cb 3b bb c4 b4 bc d3 30 54 3d 4f 9d 0e bd
       0.006208319 -0.022066465 0.051804375 -0.03481799
0002c0 10 58 55 3c 35 b0 98 3c 2c ba 17 3d bd 47 8d 3c
       0.013021484 0.01863871 0.03704278 0.017246122
0002d0 af ec 23 3d f5 ac 7d bd e7 f8 00 3d d8 98 ac bd
       0.04002064 -0.061932523 0.03148737 -0.0842759
0002e0 f9 60 cb bc c0 6d 8d bc b1 34 ad bc 39 eb 86 3d
       -0.024826514 -0.017264247 -0.02114329 0.06587834
0002f0 4b eb 04 bc cc 03 3a 3d c3 6c ce bc f3 5e 18 bd
       -0.008112739 0.045413777 -0.025198346 -0.037199926
000300 1b 75 35 bd 86 1b 93 3a b3 7a 4d bd d4 8b 78 bc
       -0.044301134 0.0011223413 -0.050165843 -0.015170056
000310 19 c6 4a 3d 6f 09 0c 3d 99 ed 06 3d 44 8a 28 3a
       0.049505327 0.034188684 0.032941435 0.00064292946
000320 87 af da bc 18 3b f5 bb a3 3b bb 3c 5b eb 3f 3c
       -0.026695026 -0.007483851 0.022855585 0.011713828
000330 b4 b3 7c bc 5c 31 87 3c b1 ee 44 bd ec f8 db bc
       -0.015423704 0.016503029 -0.048079196 -0.026852094
000340 67 2a c6 3c 4d bc e6 bc 84 6a 18 3d 15 44 c9 bc
       0.02419014 -0.02816596 0.037210956 -0.024568597
000350 7d 34 69 bd 28 59 a7 bb 30 4e 6b 3b da 41 e0 bc
       -0.056934822 -0.005107064 0.0035904758 -0.02737515
000360 a6 15 8e bb 7a 31 57 3d cb b9 ce bc bd e4 d5 bc
       -0.004336077 0.05253742 -0.025235077 -0.026110047
000370 5b 07 c1 3c 38 61 76 bc a7 67 29 bd 70 51 e2 bc
       0.023563078 -0.015037827 -0.041358616 -0.027626723
000380 71 ef 14 3d 8b ea 87 3d 7d ed 04 bd 80 13 79 bc
       0.03636116 0.066365324 -0.03245305 -0.015202403
000390 11 86 8d bc be 39 bd bc 51 4b 04 bd f1 f6 4f 3d
       -0.017275842 -0.023098823 -0.03229839 0.05077261
0003a0 94 c8 a2 3c 77 96 66 3c 07 13 95 bd a4 5c ec 3c
       0.019871034 0.01407396 -0.0727902 0.028852768
0003b0 b8 1e 6e bc a3 97 97 bc c0 67 8f bc 03 f1 9a 3c
       -0.014533691 -0.018504923 -0.017505527 0.018913751
0003c0 84 65 3c 3c 09 c6 5f 3c f1 f4 d9 bc 2d eb 6a bd
       0.011498813 0.013658055 -0.026606055 -0.057353187
0003d0 52 4d 55 3d 0f 10 3c 3d ca 98 3b 3d 4e 86 72 bc
       0.05207569 0.045913752 0.045800008 -0.014802529
0003e0 cc 75 15 bb 75 6c 4e 3d b1 fa 6d 3d a4 48 bb 3b
       -0.0022805808 0.0503964 0.058100406 0.0057154465
0003f0 c9 a1 61 bb 5d ba b9 bb c8 d5 2a ba 12 c9 89 bb
       -0.0034428707 -0.005667968 -0.0006516841 -0.0042048777

conv6.bias f4 [32]
000000 ef 8e 8b 3c a8 8e 11 bd 2a 06 3d 3c e1 4e 61 3b
       0.01703593 -0.03553644 0.011537114 0.003437929
000010 08 10 87 bd 9a 9d af 3c 1c 3f 80 bd 07 50 df 3c
       -0.065948546 0.021437455 -0.06262037 0.02725984
000020 c8 94 84 bd 90 fd 53 3c f7 31 74 3c 61 00 f2 bc
       -0.0647369 0.012938872 0.014904491 -0.029541196
000030 02 78 cc bd 3b 25 3b 3d d4 c5 c1 bc 78 83 bf bd
       -0.09983827 0.045689803 -0.023653902 -0.093512475
000040 1c e1 d5 3c 47 0c 88 3c 6e 64 6b 3d 23 99 67 bd
       0.026108317 0.016607417 0.057468824 -0.056542527
000050 9a a2 82 bc d8 19 d1 3c 7a ab bc bd 86 3c 25 bb
       -0.015946675 0.025525019 -0.09212394 -0.0025213077
000060 3f 1e 17 3d bc 83 8e bd 96 83 2e 3d 4c ed 89 bd
       0.03689408 -0.0695872 0.04260596 -0.06734714
000070 67 98 9d bd b5 c8 0a bd e8 fe d4 bc d5 ea 90 bd
       -0.07695084 -0.033882815 -0.026000455 -0.07076041

conv7.weight f4 [18, 32, 3, 9]
000000 47 af 3d bd 0b be 32 bd a9 99 95 bc f8 d7 cb 3b
       -0.046309736 -0.04363827 -0.018261747 0.006220814
000010 10 d4 a7 3c ff d9 81 3c 5a e7 03 3c bb 68 92 3b
       0.020486861 0.015851019 0.008050764 0.0044680513
000020 88 4c 92 3c e8 07 07 3b 1d 31 8e 3c 74 74 c1 3c
       0.017858759 0.0020604078 0.017357403 0.0236151
000030 48 fd 9e 3b 67 eb df bc 9c 3e 10 bd e9 87 15 3b
       0.004851971 -0.027333928 -0.03521596 0.0022816604
000040 f6 8d 8e 3c aa 5e b4 bc 05 5c c5 3a 96 d6 92 ba
       0.017401677 -0.022017796 0.0015057331 -0.0011202868
000050 c0 0c 21 bd a7 a1 ae bc c3 bf 4f bd 1f 83 b4 bc
       -0.0393188 -0.021317316 -0.050719988 -0.02203518
000060 c8 dc bb bb 48 a2 8e 3c 1b 85 9d bb 42 50 97 3b
       -0.0057331063 0.017411366 -0.004807127 0.004617722
000070 9a bd ff bb d0 eb 6f bc 6e f6 d7 3c fb 87 b6 3c
       -0.0078045847 -0.014643624 0.026362624 0.022281637
000080 05 31 40 3c b8 41 b8 3c ff 71 6f 3c e4 aa 0d bc
       0.011730437 0.022492275 0.014614581 -0.0086467005
000090 d3 b9 99 bc 73 8b 1d bc 3b db 63 3c 3f 1b 06 bd
       -0.018765366 -0.009615767 0.013907249 -0.032740828
0000a0 24 f2 b2 3c 9b 2d d8 3c e2 14 ae bc 8f 1a 71 bb
       0.021843977 0.026388934 -0.021250192 -0.0036789512
0000b0 6b c0 8c 3c 54 39 37 bd 8c 8d 38 bd 9a ec 98 bc
       0.017181596 -0.044732407 -0.045056865 -0.018667508
0000c0 e8 62 05 bd a5 91 fe ba 1f 51 c2 3c ef 3e 4e bc
       -0.032565027 -0.0019422068 0.023720322 -0.012588247
0000d0 55 d9 c2 bc 0c cf 54 bc a7 bc e7 bb 94 71 08 bc
       -0.023785273 -0.012988817 -0.0070720497 -0.00832786
0000e0 42 a8 7a bc 5e f8 d9 3b 65 64 af bc 29 4b 26 bd
       -0.015298905 0.006651922 -0.021410177 -0.040599022
0000f0 d9 78 c8 3b 50 ca 09 bd af 44 f3 bc 29 d7 b4 bc
       0.006117922 -0.033640206 -0.029695837 -0.022075253
000100 25 82 e4 bc a7 12 0f bb 2a b5 88 bc 49 91 af bc
       -0.027894089 -0.0021831186 -0.016687948 -0.021431582
000110 b9 ce 86 3c 2d b2 d8 bb e1 a5 83 3c c3 60 5f 3c
       0.016455995 -0.006613037 0.016070308 0.01363391
000120 47 45 45 3b 66 bc 02 bd f4 f3 6a bc ee 04 e1 bc
       0.0030101107 -0.031917952 -0.0143403895 -0.027468171
000130 82 9b 62 3c 91 79 98 3c f0 2f ed ba a9 da cf 3c
       0.013831021 0.018612655 -0.0018095952 0.02537282
000140 6d 3e 19 bd 01 39 29 3d 83 8f eb 3c c2 40 22 3d
       -0.03741305 0.04131413 0.028754955 0.03961254
000150 82 ed 9b 3c 8e 51 17 3b 4e 99 82 bc 24 fa ac 3c
       0.019034151 0.0023089382 -0.015942242 0.02111537
000160 7c dc 5a 3d 0c 00 e5 3c 0f b7 5b 3c 0f d0 cd 3c
       0.053432927 0.027954124 0.013410344 0.025123624
000170 75 22 00 bc c3 a1 96 bc f7 65 3e bd 1c 6e 4f bd
       -0.007820715 -0.01838768 -0.04648396 -0.050642118
000180 3a b1 40 3d 16 4c 2d 3d 85 ea 92 3c 7a 57 31 bd
       0.047044016 0.04230889 0.017934093 -0.043296315
000190 a0 32 6e bd 7e b6 1c bd 9c cc 6e 3b 4b b2 ac bb
       -0.05815375 -0.038259976 0.0036437875 -0.0052702776
0001a0 c3 cc a5 bd 2d 37 b2 bd 5c 89 92 bc 72 80 c6 bc
       -0.08095696 -0.0870193 -0.017887764 -0.02423117
0001b0 29 45 d6 bc 8a 52 00 bd 89 ee 82 bc 36 0e f3 bc
       -0.026156025 -0.031328715 -0.015982883 -0.029669862
0001c0 40 3a 17 bd e5 94 fb bc a1 7c 55 3c 1a b6 ef ba
       -0.036920786 -0.030710647 0.013030202 -0.0018288523
0001d0 38 9b a4 3b 67 10 85 3c 7e b8 d5 3c 22 82 99 3c
       0.0050233863 0.016243173 0.02608895 0.01873881
0001e0 4e 25 1d 3c a5 49 80 3b 1a 2a df bc fc 2a 1d 3c
       0.009591414 0.003915029 -0.027241755 0.009592768
0001f0 77 2d c7 3c af 29 e8 3c cf 6b 9d 3c 56 44 85 bc
       0.024313672 0.028340189 0.019216446 -0.016267937
000200 c0 4e 34 bc 98 67 8f bc 83 f1 85 3c a1 59 62 3c
       -0.011005104 -0.017505452 0.016350513 0.0138153145
000210 f1 72 8a bc bd f5 d9 bc 3e 59 27 b9 6c ee d4 ba
       -0.016900511 -0.026606435 -0.00015959606 -0.0016245372
000220 16 0c 8d 3c 92 dd d9 bc b0 dc 67 3c 8a b1 dc bc
       0.017217677 -0.02659491 0.014151737 -0.026940126
000230 06 bc 87 bc b5 f8 2f 3c e5 26 8f 3c 12 80 ec 3c
       -0.016569149 0.010740449 0.017474601 0.028869662
000240 f4 15 88 3c 5b 23 03 3c e6 a0 89 bc 5c ba 5e bb
       0.01661203 0.008004035 -0.016800355 -0.003398559
000250 5a d2 ff 39 9d 9f 81 bc 77 bb 39 bd 18 f9 a1 3c
       0.00048794114 -0.01582318 -0.045344796 0.019772097
000260 b7 88 df bb 2e ab b6 3b f3 09 05 bc 3f 6a b8 bc
       -0.0068217176 0.0055746054 -0.008120048 -0.0225116
000270 83 40 9d 3c 62 22 0b 3c d4 5c 3e bc 25 20 47 3d
       0.0191958 0.008492084 -0.011618812 0.04861464
000280 51 cd f6 3c e9 f8 e4 bc 38 5d d1 bc 09 41 d7 bc
       0.0301272 -0.02795072 -0.025557145 -0.026276128
000290 81 43 f0 bc 43 ee 8d bc 9b 40 3c 3c a5 83 8c 3c
       -0.029329063 -0.017325526 0.0114900125 0.017152617
0002a0 47 25 0c bd d1 42 f4 ba 10 50 91 3c 4c a5 c8 3c
       -0.034215238 -0.0018635635 0.017738372 0.024492882
0002b0 b6 00 e7 bc 19 6d bb 3b 26 e0 fd bc 00 38 bd bb
       -0.028198581 0.0057197926 -0.030990671 -0.005774498
0002c0 fa 6f ca bc 20 7f a2 3c 92 bc e1 bb a4 93 c1 3c
       -0.024711598 0.019836009 -0.0068889344 0.02362997
0002d0 16 71 15 3d e5 2b 95 3c 8e 79 84 bc e0 4d 6e bc
       0.0364848 0.018209407 -0.016171243 -0.014544934
0002e0 6c c7 e7 3c 15 c3 36 3c 30 7c 76 3d 89 95 b4 bc
       0.028293334 0.01115491 0.06017703 -0.02204396
0002f0 49 7a 51 bd 51 55 e6 3a 81 e9 9f 3c e8 13 cc bc
       -0.05114201 0.0017573034 0.019520523 -0.024911836
000300 97 2e 00 3c 6c b8 b9 bb 05 0c 81 3c b5 47 04 3d
       0.007823608 -0.0056677368 0.015752802 0.032294948
000310 7f 90 95 3c 51 78 4d bc 23 b8 6c 3c 5c 5c dc bc
       0.018257378 -0.012540893 0.0144481985 -0.02689951
000320 04 c8 f3 3b dc ed 67 3c ad ed 21 bc 71 eb 0f bd
       0.007439615 0.014155831 -0.0098833265 -0.035136644
000330 cc be 45 3c c5 34 5f bc ba f6 91 3c 22 0f 12 3c
       0.012069415 -0.013623421 0.017817844 0.008914741
000340 a2 c5 dc 3c a8 26 9f 3c 39 c6 c6 bc 0d 8b 4c bb
       0.026949707 0.019427612 -0.024264442 -0.003121081
000350 0b 1b 9c bb b7 d2 11 bd e9 d7 b4 bb bc 17 e3 ba
       -0.004763966 -0.035601344 -0.0055189026 -0.0017325799
000360 1f 32 8c bb c3 17 8a bc 63 91 fb bc b1 5f 0d bd
       -0.004278436 -0.016857034 -0.030708974 -0.034515087
000370 46 51 75 3c 6b 91 d9 3b 75 68 0f bc cd 21 eb 3b
       0.01497299 0.0066396496 -0.008752932 0.00717566
000380 66 a3 8a bc 3d c4 9d 3b 32 49 91 3c 8f 20 f9 bb
       -0.016923618 0.004814653 0.017735098 -0.0076027582
000390 9b ca a2 3c 62 96 2e 3c 62 34 20 bc 3d 40 ac 3c
       0.019872 0.010655971 -0.009778114 0.021026725
0003a0 aa 08 bf 3c 72 5c 23 bd d8 8d b8 3b 57 ab 4c 3c
       0.023319561 -0.039883085 0.0056321435 0.0124920225
0003b0 49 64 6c 3c b2 4a a4 bc 88 27 b2 bc 0b cb 45 3c
       0.014428207 -0.020055149 -0.021747366 0.012072335
0003c0 33 c7 0a 3c 8b d6 ea 3c 49 84 f6 bb f6 a8 70 3c
       0.008470344 0.028666755 -0.007523094 0.014688721
0003d0 20 ad 46 3c 5d 59 fe bc a5 44 85 bd 54 7b af bd
       0.012126237 -0.031048471 -0.065072335 -0.08568445
0003e0 81 eb 35 3d 45 74 1d 3d 41 74 1c 3d 84 d5 2f bd
       0.044414047 0.03844096 0.038196806 -0.042928234
0003f0 f6 32 06 3d 26 50 5a bb 25 b1 fb bc 57 49 ed bb
       0.032763444 -0.0033311932 -0.030724118 -0.007241409

conv7.bias f4 [18]
000000 6a 70 22 bd 35 1e 9a bc 46 dd d9 bc 3a f2 f4 bc
       -0.039657988 -0.018813232 -0.02659477 -0.029900659
000010 c7 bd 7d bb dd 2e 59 bc d2 70 af 3c 44 0d d4 3a
       -0.0038717852 -0.013255802 0.021416102 0.001617827
000020 f9 e0 51 3d 85 6e eb bb 98 b6 61 3d 62 87 09 3c
       0.05123994 -0.007184806 0.055105776 0.008394094
000030 30 30 1e 3d ff da c6 3c d1 0f 70 3c 0a bb f0 3b
       0.038620174 0.024274347 0.014652208 0.0073465155
000040 cb 92 cd bc 1b d2 94 bc
       -0.02509441 -0.018166592
