A5 CNNs Sun Sensing/best_model_45.pth (torch, 373304 bytes, 14 tensors)

conv3.weight f4 [32, 3, 1, 1]
0	0x3ed000a7	0.40625498
1	0x3ee1922c	0.44056833
2	0xbe338d92	-0.17534474
3	0x3eff23ae	0.4983191
4	0xbe2d727b	-0.16938202
5	0x3d9bbfca	0.0760494
6	0xbea71333	-0.32631835
7	0x3e984fac	0.29748285
8	0x3ef1d294	0.4723097
9	0xbeec2eed	-0.46129552
10	0x3ef4967a	0.47771055
11	0x3da6a939	0.081377454
12	0x3ec3a5d9	0.3821247
13	0x3cd91f92	0.026504312
14	0x3e687677	0.22701441
15	0xbdeb1a42	-0.11479618
16	0x3ed33c91	0.41257146
17	0x3d532776	0.051551305
18	0xbe797b92	-0.24363545
19	0x3e38a2e6	0.18030891
20	0xbe6fbe16	-0.23412356
21	0xbdb9215d	-0.09039567
22	0xbe81d596	-0.25358266
23	0x3ebf35da	0.37345773
24	0xbed43f6a	-0.4145463
25	0xbe5e6882	-0.21719554
26	0xbde3d1a8	-0.11123973
27	0xbe96ac45	-0.29428306
28	0x3de2c7d9	0.11073274
29	0xbf03f3ac	-0.5154369
30	0x3efa3959	0.48871878
31	0xbf08287b	-0.5318677
32	0x3ed28e6c	0.41124284
33	0x3d775e7d	0.060392845
34	0xbe6bb013	-0.23016386
35	0x3ea41a42	0.32051283
36	0x3d45e5e2	0.048314936
37	0x3ed61936	0.4181611
38	0x3c4fe84c	0.012689661
39	0xbe171a6d	-0.14756174
40	0x3e498f2f	0.19683526
41	0xbdf7144c	-0.12064418
42	0x3e4a406f	0.19751142
43	0x3ef18031	0.47168115
44	0x3e93e9a9	0.28889206
45	0xbe94584f	-0.28973624
46	0x3e9ce548	0.30643678
47	0x3d966f84	0.07345489
48	0x3eafe3c3	0.34353456
49	0xbe9ce4d5	-0.30643335
50	0xbf071d10	-0.5277872
51	0xbe54d4e7	-0.20784341
52	0xbed8a90c	-0.42316473
53	0x3f007a48	0.50186586
54	0x3de0cdb9	0.109767385
55	0x3e3ac022	0.18237355
56	0x3dfa117f	0.12210368
57	0xbc59caa6	-0.013292944
58	0x3ee49e97	0.44652244
59	0xbede40e5	-0.43408886
60	0x3d81e29c	0.063420504
61	0xbebd8fbd	-0.37023726
62	0x3e58da96	0.21177134
63	0xbe333887	-0.17502032
64	0x3e557691	0.2084601
65	0xbdbebd22	-0.09313418
66	0x3f06cddb	0.5265786
67	0xbe9ee08d	-0.31030694
68	0xbea14a0e	-0.31501812
69	0xbec708e5	-0.38873973
70	0x3ef77beb	0.4833673
71	0x3e1f44a5	0.1555353
72	0x3f19c81a	0.60070956
73	0xbee0dc38	-0.43918014
74	0xbf08a70b	-0.5337989
75	0xbed6ab1a	-0.41927415
76	0xbeb322d8	-0.3498752
77	0x3e8f14ac	0.2794546
78	0x3e3638d3	0.17795114
79	0x3ee45407	0.44595358
80	0xbead26e8	-0.33818746
81	0xbeb94d62	-0.3619185
82	0x3eb0bd37	0.3451936
83	0xbe4eacfa	-0.20183173
84	0x3e9e25f6	0.30888337
85	0xbe410617	-0.1884998
86	0x3e8eb805	0.2787477
87	0xbed6bb8e	-0.41939968
88	0xbe83dbba	-0.25753576
89	0x3e5bdad9	0.21470203
90	0x3d9efeb8	0.077634275
91	0xbe46a49d	-0.19398732
92	0x3e9a969b	0.30193028
93	0x3ee16201	0.44020084
94	0xbec2cc02	-0.3804627
95	0xbe8ae817	-0.27130195

conv3.bias f4 [32]
0	0x3ed4826b	0.4150575
1	0xbea4efac	-0.32214105
2	0xbe7c55be	-0.24642083
3	0xbf17f051	-0.5935107
4	0xbee718d9	-0.45136145
5	0x3dae16ae	0.085004196
6	0x3cd38304	0.025819309
7	0xbec705b6	-0.38871545
8	0x3dfb30e8	0.122651875
9	0xbe972857	-0.29522964
10	0xbf173037	-0.59057945
11	0xbeb5551a	-0.3541649
12	0xbf2366ae	-0.6382855
13	0xbea9a573	-0.3313404
14	0x3f04fb14	0.51945615
15	0x3defb1f7	0.11703866
16	0x3e4a3172	0.19745424
17	0xbeed4e9a	-0.4634903
18	0xbf002dc2	-0.5006982
19	0xbe9d9d34	-0.30784
20	0x3e23c90a	0.15994659
21	0xbef85579	-0.4850271
22	0xbe86b654	-0.2631098
23	0xbec3afd2	-0.38220078
24	0x3d3ee8c7	0.046608713
25	0xbdb64d54	-0.08901468
26	0xbe31bef9	-0.17358007
27	0xbe95426d	-0.2915224
28	0xbf08a468	-0.53375864
29	0xbe7927d3	-0.24331598
30	0xbe841fc9	-0.258055
31	0xbef0c235	-0.47023168

batchnorm1.weight f4 [32]
0	0x3f800000	1.0
1	0x3f800000	1.0
2	0x3f800000	1.0
3	0x3f800000	1.0
4	0x3f800000	1.0
5	0x3f800000	1.0
6	0x3f800000	1.0
7	0x3f800000	1.0
8	0x3f800000	1.0
9	0x3f800000	1.0
10	0x3f800000	1.0
11	0x3f800000	1.0
12	0x3f800000	1.0
13	0x3f800000	1.0
14	0x3f800000	1.0
15	0x3f800000	1.0
16	0x3f800000	1.0
17	0x3f800000	1.0
18	0x3f800000	1.0
19	0x3f800000	1.0
20	0x3f800000	1.0
21	0x3f800000	1.0
22	0x3f800000	1.0
23	0x3f800000	1.0
24	0x3f800000	1.0
25	0x3f800000	1.0
26	0x3f800000	1.0
27	0x3f800000	1.0
28	0x3f800000	1.0
29	0x3f800000	1.0
30	0x3f800000	1.0
31	0x3f800000	1.0

batchnorm1.bias f4 [32]
0	0x00000000	0.0
1	0x00000000	0.0
2	0x00000000	0.0
3	0x00000000	0.0
4	0x00000000	0.0
5	0x00000000	0.0
6	0x00000000	0.0
7	0x00000000	0.0
8	0x00000000	0.0
9	0x00000000	0.0
10	0x00000000	0.0
11	0x00000000	0.0
12	0x00000000	0.0
13	0x00000000	0.0
14	0x00000000	0.0
15	0x00000000	0.0
16	0x00000000	0.0
17	0x00000000	0.0
18	0x00000000	0.0
19	0x00000000	0.0
20	0x00000000	0.0
21	0x00000000	0.0
22	0x00000000	0.0
23	0x00000000	0.0
24	0x00000000	0.0
25	0x00000000	0.0
26	0x00000000	0.0
27	0x00000000	0.0
28	0x00000000	0.0
29	0x00000000	0.0
30	0x00000000	0.0
31	0x00000000	0.0

batchnorm1.running_mean f4 [32]
0	0x00000000	0.0
1	0x00000000	0.0
2	0x00000000	0.0
3	0x00000000	0.0
4	0x00000000	0.0
5	0x00000000	0.0
6	0x00000000	0.0
7	0x00000000	0.0
8	0x00000000	0.0
9	0x00000000	0.0
10	0x00000000	0.0
11	0x00000000	0.0
12	0x00000000	0.0
13	0x00000000	0.0
14	0x00000000	0.0
15	0x00000000	0.0
16	0x00000000	0.0
17	0x00000000	0.0
18	0x00000000	0.0
19	0x00000000	0.0
20	0x00000000	0.0
21	0x00000000	0.0
22	0x00000000	0.0
23	0x00000000	0.0
24	0x00000000	0.0
25	0x00000000	0.0
26	0x00000000	0.0
27	0x00000000	0.0
28	0x00000000	0.0
29	0x00000000	0.0
30	0x00000000	0.0
31	0x00000000	0.0

batchnorm1.running_var f4 [32]
0	0x3f800000	1.0
1	0x3f800000	1.0
2	0x3f800000	1.0
3	0x3f800000	1.0
4	0x3f800000	1.0
5	0x3f800000	1.0
6	0x3f800000	1.0
7	0x3f800000	1.0
8	0x3f800000	1.0
9	0x3f800000	1.0
10	0x3f800000	1.0
11	0x3f800000	1.0
12	0x3f800000	1.0
13	0x3f800000	1.0
14	0x3f800000	1.0
15	0x3f800000	1.0
16	0x3f800000	1.0
17	0x3f800000	1.0
18	0x3f800000	1.0
19	0x3f800000	1.0
20	0x3f800000	1.0
21	0x3f800000	1.0
22	0x3f800000	1.0
23	0x3f800000	1.0
24	0x3f800000	1.0
25	0x3f800000	1.0
26	0x3f800000	1.0
27	0x3f800000	1.0
28	0x3f800000	1.0
29	0x3f800000	1.0
30	0x3f800000	1.0
31	0x3f800000	1.0

conv4.weight f4 [32, 32, 7, 7]
0	0x3cb46fd9	0.02202599
1	0xbc189056	-0.009311756
2	0x3c9c6493	0.019090926
3	0x3baa8f57	0.0052050757
4	0xbcaa7c26	-0.020811152
5	0x3c9ed2f3	0.019387698
6	0xbb346f84	-0.0027532289
7	0xbc19319c	-0.009350207
8	0xbcc31598	-0.023814008
9	0xbcda1281	-0.026620151
10	0x3bd3b238	0.0064604543
11	0xbbcf024e	-0.0063174134
12	0x3c2ee3ad	0.010674399
13	0xbcad4865	-0.021152684
14	0x3c893275	0.016747693
15	0xbc9686bc	-0.018374793
16	0xbbef6e3e	-0.007306843
17	0xbacbecf0	-0.0015558284
18	0x3b90ef5b	0.0044230646
19	0x3c87ebe1	0.016591968
20	0x3c7ea974	0.01554333
21	0xbc81b62e	-0.01583394
22	0x3bb5237f	0.005527913
23	0xbc4056ac	-0.011739414
24	0xbb1f3ee6	-0.0024298965
25	0xbca4d23a	-0.020119775
26	0x3cb219ee	0.02174088
27	0xbc963b4a	-0.018338818
28	0x3c48bc08	0.012251861
29	0x3beb792b	0.007186075
30	0x3beadd68	0.007167507
31	0xbc8c90dc	-0.017158918
32	0x3cc79d3b	0.024366966
33	0x3c1ecf47	0.009692973
34	0x3ba25727	0.004954237
35	0xbcbabb17	-0.02279429
36	0x3bb33947	0.0054694745
37	0xbbfb8d84	-0.007676782
38	0xbc5c094d	-0.013429952
39	0x3c8e6890	0.017383844
40	0x3b95f003	0.0045757308
41	0xbc7bbca8	-0.015364803
42	0xbc61cf7c	-0.013782378
43	0xbb785aaa	-0.0037895837
44	0x3c4a737c	0.012356635
45	0xbc317f59	-0.010833585
46	0xbc9529a8	-0.01820834
47	0xbbf4ccb4	-0.0074706916
48	0xbca817a9	-0.020519095
49	0x3c039b6f	0.008032664
50	0x3c5b13aa	0.0133713875
51	0xbce89b1f	-0.02839428
52	0x3b1e764b	0.0024179395
53	0x3c406954	0.011743862
54	0x3b8fc6d5	0.0043877163
55	0xbbe4fa5c	-0.006987853
56	0x3c40fe8d	0.01177944
57	0x3c0e4a69	0.008684733
58	0x3b86a99d	0.004109575
59	0xbbf707cb	-0.007538771
60	0xbc207751	-0.009794072
61	0x3b1c88ad	0.0023885176
62	0xbbea592e	-0.0071517443
63	0xbc5221c2	-0.012825431
64	0x3c6ca118	0.014442705
65	0x3c8e0c44	0.017339833
66	0xbc3b2a4e	-0.01142366
67	0xbc7a7263	-0.015286061
68	0xbb826a49	-0.0039799553
69	0xbc139e19	-0.009009861
70	0x3c07d7b8	0.008291177
71	0x3bc54bf0	0.0060210153
72	0xbcc5941c	-0.024118476
73	0xbc3213a3	-0.01086894
74	0x3c9a3e6e	0.018828597
75	0x3bf78e7d	0.0075548277
76	0xbaf678e4	-0.0018804339
77	0xbc969dae	-0.018385734
78	0xbc9b6730	-0.018970102
79	0xbcc5b3f9	-0.02413367
80	0xbc5603b6	-0.013062408
81	0x3c013f51	0.007888631
82	0x3c9c1f77	0.019057972
83	0x3c50844f	0.012726857
84	0xbcc48a0a	-0.023991603
85	0xbcaf9a0e	-0.021435764
86	0xbc079c97	-0.00827708
87	0x3cb42a8e	0.021992948
88	0xbb20c5d8	-0.0024531987
89	0xbbfbd78e	-0.007685608
90	0x3c0b98de	0.008520333
91	0xbc442271	-0.011971102
92	0xbca2ff17	-0.019897027
93	0x3c80a73b	0.015704742
94	0xbc86ed6a	-0.01647063
95	0xbc12f69d	-0.00896993
96	0xbcccb3c1	-0.024988057
97	0x3c838614	0.016055144
98	0x3cbcd3bd	0.023050183
99	0x3b9ce5f3	0.0047881543
100	0xbca9a2c2	-0.020707492
101	0xbcec9726	-0.028880667
102	0xbcb45a10	-0.022015601
103	0x3c97e17c	0.018540137
104	0x3c808370	0.015687674
105	0x3c9ad2b1	0.018899294
106	0x3c1ea002	0.0096817035
107	0x3b89fced	0.0042110593
108	0xbb7427dc	-0.0037255203
109	0xbcc3dfa0	-0.023910344
110	0xbcd00f83	-0.025398022
111	0xbcd171b9	-0.025566923
112	0x3c44369a	0.011975909
113	0xbc85013b	-0.016235938
114	0xbc448495	-0.011994501
115	0xbcb9597c	-0.022625677
116	0xbc3c41ad	-0.011490268
117	0xbcd28a8e	-0.025700834
118	0xbcbcfda4	-0.023070164
119	0x3c0d5a15	0.008627434
120	0xbc2e34a6	-0.01063267
121	0x3c2e367f	0.01063311
122	0xbc402ac5	-0.011728947
123	0xbcb00c3b	-0.021490207
124	0xbc08f03c	-0.008358058
125	0xbc43f1e0	-0.011959523
126	0xbc1ba399	-0.009499454
127	0xbccfd2a3	-0.025368994
128	0x3c62defc	0.013847109
129	0xbc9f3edc	-0.019439153
130	0x3c691714	0.014226694
131	0x3c6967fc	0.014245983
132	0x3caf37bf	0.021388886
133	0xbcacda06	-0.021100055
134	0x3c7c5510	0.01540114
135	0xbc95a349	-0.018266337
136	0x3c08bed5	0.008346279
137	0x3cb5aefe	0.02217817
138	0xbb579684	-0.003289611
139	0x3a1ced36	0.0005986275
140	0xbbf17dd3	-0.0073697357
141	0xbcb77ee6	-0.022399377
142	0x3c2231db	0.009899582
143	0xbcf8efba	-0.030387748
144	0x3c38e80a	0.011285791
145	0x3c934d1d	0.017981106
146	0x3cbaf335	0.022821048
147	0x3941b3d2	0.00018472903
148	0xbcba886c	-0.02277013
149	0x3b8fcba9	0.004388292
150	0x3c0fb2b8	0.008770637
151	0xbcdac613	-0.026705777
152	0xbbbff4f9	-0.0058580604
153	0xbc2e0e00	-0.010623455
154	0xbba37d2a	-0.004989286
155	0xbc748ae5	-0.014925693
156	0xbbeb0924	-0.0071727205
157	0xbc2a6ad5	-0.010401447
158	0xbce6254a	-0.028093953
159	0x3c739117	0.014866135
160	0x3caa55a8	0.020792797
161	0x3b5a4993	0.0033308014
162	0xbbec73ee	-0.0072159683
163	0xbc9563c9	-0.018236058
164	0xbce61e77	-0.028090699
165	0xbcf124db	-0.02943652
166	0xba05b2f8	-0.0005100216
167	0xbcacd972	-0.02109978
168	0xbc8ecba3	-0.017431086
169	0xbc06a3ae	-0.008217735
170	0xbc8e728f	-0.01738861
171	0xbc498a53	-0.0123010455
172	0xbb3bee23	-0.0028675876
173	0xbc2ca634	-0.010537673
174	0xbc21a886	-0.009866839
175	0xbc4c3d0f	-0.012465729
176	0xbca44751	-0.020053538
177	0x3ca25275	0.01981471
178	0xbc25b578	-0.010114066
179	0x3c1a9a4b	0.0094362
180	0xbbfd04c5	-0.007721516
181	0x3b829d5e	0.003986045
182	0x3caac567	0.020846082
183	0x3c2cfaae	0.010557814
184	0xbcfa2561	-0.030535402
185	0x3c083d08	0.008315332
186	0x3cd0e491	0.025499614
187	0x3ba3603c	0.0049858373
188	0x3c8c0b0b	0.01709511
189	0x3cbe1912	0.023205314
190	0xbba214e9	-0.0049463403
191	0x3b095b92	0.0020959121
192	0xbcc51e98	-0.02406244
193	0xbc421d8c	-0.011847865
194	0x3c83895c	0.016056709
195	0x3bf0f780	0.007353723
196	0xbc7bec6e	-0.015376193
197	0xbcd4450c	-0.02591183
198	0xbcaec815	-0.02133564
199	0xbcea26f6	-0.028583031
200	0xbca9b63f	-0.020716785
201	0xbbcd7f1d	-0.0062712566
202	0x3ca1a935	0.019734005
203	0x3b2d2b81	0.0026423635
204	0xbcc04ce7	-0.02347417
205	0xbcc75ece	-0.024337199
206	0x3c1af175	0.009456982
207	0xbcb665ab	-0.022265276
208	0xbb930f12	-0.0044878805
209	0x3c1f5a04	0.009726051
210	0xbc6ff126	-0.014644897
211	0xbba46aa8	-0.005017597
212	0xbbf06c6a	-0.0073371427
213	0xbc71e5c0	-0.014764249
214	0xbcb34ad4	-0.021886267
215	0xbce6d93b	-0.028179755
216	0xbce56857	-0.028003855
217	0xbc3ecc79	-0.01164543
218	0x3cb95222	0.022622172
219	0xbc6efb52	-0.014586287
220	0xbc9c07fe	-0.01904678
221	0x3b645f3a	0.0034846799
222	0x3b86f648	0.0041187145
223	0x3c5cbbf6	0.013472548
224	0x3c8792cd	0.016549492
225	0x3c384880	0.011247754
226	0xbcd7189d	-0.026256854
227	0xbae849f6	-0.0017722237
228	0x3c7d8cb6	0.015475443
229	0x3a36acf2	0.000696852
230	0xbc5697f4	-0.013097752
231	0x3cb7eec1	0.022452714
232	0xbc711a72	-0.014715778
233	0xbc9eaf20	-0.019370615
234	0xbccb863c	-0.024844281
235	0xbb695cae	-0.003560822
236	0x3c29e0e9	0.010368564
237	0x3b9156e6	0.004435408
238	0x3b4143d4	0.0029489892
239	0xbcb487c6	-0.022037398
240	0xbcd5e5a8	-0.026110485
241	0xbb9b10f9	-0.004732248
242	0x3c9a574d	0.018840456
243	0x3c6d1be9	0.014471986
244	0xbc813fbd	-0.015777463
245	0xb9dbb3f6	-0.00041905016
246	0xbcb636fe	-0.02224302
247	0xbc6ba61c	-0.014382865
248	0x3ab81474	0.0014044181
249	0x3c621874	0.013799775
250	0x3cb6a2be	0.022294398
251	0xbc98e0ef	-0.018661944
252	0x3c85f6de	0.016353067
253	0xbca72515	-0.020403424
254	0x3c14b211	0.009075657
255	0x3ca41de6	0.020033788

conv4.bias f4 [32]
0	0x3d2baf22	0.041915067
1	0xbd43db4a	-0.047816552
2	0xbc8b8523	-0.017031258
3	0x3c677e8b	0.014129291
4	0x3ce90b08	0.028447643
5	0xbd46c800	-0.04853058
6	0x3d390bda	0.04517732
7	0x3c5547ea	0.013017634
8	0xbbe7cceb	-0.0070739887
9	0x3afcff47	0.0019302153
10	0x3d547a96	0.05187472
11	0x3d760f6e	0.06007331
12	0x3cb3fddb	0.021971634
13	0xbd255fd0	-0.040374577
14	0x3cc6229c	0.024186425
15	0x3c9a5e30	0.01884374
16	0xbc7fce49	-0.015613147
17	0x3cb69c95	0.022291461
18	0xbdc0019e	-0.093753085
19	0xba9e112e	-0.0012059563
20	0xbcf14b9d	-0.029455
21	0xbd49bd83	-0.049252998
22	0x3c21a8a1	0.009866864
23	0x3d88906f	0.066681735
24	0xbd186a2b	-0.037210625
25	0xbbd7035e	-0.0065616807
26	0x3d689f73	0.056792688
27	0xb9b6b6b1	-0.0003484986
28	0xbc06e4b7	-0.008233241
29	0x3c356716	0.011071941
30	0x3d72a9bd	0.059243906
31	0xbd12d334	-0.03584595

conv5.weight f4 [32, 32, 5, 5]
0	0x3d0c66ba	0.034277655
1	0x3cdbc672	0.026828025
2	0x3bc4612e	0.00599303
3	0xbc0b5e65	-0.008506392
4	0xbc9d4501	-0.019197943
5	0x3ca5f337	0.020257575
6	0x3c4d3a9d	0.0125261815
7	0xbcb488d1	-0.022037895
8	0xbc1b3a19	-0.009474301
9	0x3a8db434	0.0010811151
10	0x3d0acb66	0.033885382
11	0xbc612cd3	-0.013743597
12	0x3b8f1bdc	0.004367335
13	0xbc94cf2f	-0.0181652
14	0x3cff8cd7	0.031195087
15	0xbbc60edd	-0.0060442523
16	0xbab963c3	-0.0014144111
17	0x3cdbe3e1	0.02684206
18	0x3ce8b025	0.028404305
19	0x3c939b92	0.018018518
20	0x3d1298b9	0.03579018
21	0xbcbe8f70	-0.023261756
22	0xbc8f4ca8	-0.017492607
23	0x3d012838	0.031532496
24	0x3cfbedbd	0.03075301
25	0x3cfc64fe	0.030809876
26	0xbceecbf0	-0.02914998
27	0x3c8d6d5c	0.01726406
28	0x3d0ad945	0.03389861
29	0x3c8d0d22	0.017218176
30	0x3c004e46	0.007831162
31	0x3d022f3d	0.03178333
32	0x3d0f2fd1	0.03495771
33	0x3ccc6b40	0.024953485
34	0x3c999545	0.018747935
35	0xbd18c0c1	-0.0372932
36	0xbd1e5b9e	-0.03866159
37	0x3be0a718	0.0068558566
38	0xbcf4bb50	-0.029874474
39	0x3b41650a	0.0029509687
40	0xbc86358d	-0.016382957
41	0xba7faaba	-0.0009752918
42	0xbc8cd4fa	-0.017191399
43	0x3ce0906f	0.027412621
44	0x3d1db045	0.03849818
45	0xbcc776d6	-0.024348658
46	0x3d118843	0.03553034
47	0xbcdada1d	-0.026715333
48	0xbc9f3858	-0.019436046
49	0x3cb220a7	0.021744085
50	0xbc6ece82	-0.0145756025
51	0xbd035f8a	-0.032073535
52	0xbc952ec5	-0.018210778
53	0x3d0c1906	0.03420355
54	0xbcf839fb	-0.030301085
55	0xbc8919b9	-0.016735898
56	0xbcd455d9	-0.025919842
57	0x3c20ea85	0.009821539
58	0x3ca5f39b	0.020257762
59	0xbca5fd6b	-0.02026244
60	0xbbc6fa46	-0.0060723154
61	0xbc55e135	-0.013054182
62	0xbd0b7fec	-0.034057543
63	0xbb03e002	-0.0020122533
64	0x3baa8964	0.0052043665
65	0x3cb5fc0a	0.022214908
66	0x3cec051e	0.028811034
67	0xbc8b07ce	-0.016971495
68	0xbc638fb7	-0.013889245
69	0xbc086de1	-0.008326978
70	0xbc940f7b	-0.018073788
71	0x3cc36a03	0.023854261
72	0x3c5c5a19	0.013449215
73	0xbaca1a7d	-0.0015419271
74	0x3cf57fe1	0.029968204
75	0x3bdc3862	0.0067205885
76	0x3cdac9c0	0.02670753
77	0x3c9cd79d	0.019145781
78	0xbced1325	-0.028939793
79	0x39e7f0e3	0.00044239228
80	0x3d01fb5c	0.031733856
81	0x3b478362	0.00304433
82	0x3c1e7ac5	0.009672825
83	0x3d0a6684	0.033789173
84	0x3c8f38b4	0.017483093
85	0xbbf89179	-0.007585701
86	0x3d0e526a	0.034746565
87	0x3cd52f58	0.026023552
88	0x3c9c99ea	0.01911636
89	0xbc150535	-0.00909548
90	0xbcfe025a	-0.03100698
91	0xbbd971c2	-0.0066358754
92	0xbc22b404	-0.009930614
93	0x3ca2da95	0.019879619
94	0xb9458380	-0.00018836372
95	0xbc23ab07	-0.009989507
96	0x3bc0372d	0.0058659525
97	0xbd1cf72d	-0.038321663
98	0xbc09b3e5	-0.008404707
99	0xb8dd0c9a	-0.000105404484
100	0xbbfa6380	-0.007641256
101	0x3be99678	0.007128533
102	0xbc76b984	-0.015058879
103	0xbd0cc3dd	-0.034366477
104	0xbd130205	-0.035890598
105	0x3b9750e4	0.004617797
106	0xbcf96acd	-0.030446434
107	0x3ce2411b	0.027618935
108	0x3c465779	0.012105816
109	0x3d13aeb5	0.036055285
110	0xbb6663a6	-0.003515461
111	0x3d09af58	0.033614486
112	0xbcd889b5	-0.026432851
113	0x3cd2c4f2	0.025728676
114	0x3d06c4b5	0.03290244
115	0xbc28940e	-0.010289205
116	0xbce80c51	-0.028326185
117	0xbcc844bd	-0.02444684
118	0xbcd3066c	-0.025759898
119	0x3c42f0bf	0.011898219
120	0xbcbfd01f	-0.02341467
121	0xbd01c58d	-0.03168254
122	0xbc735e9f	-0.014854102
123	0xbbecc0e2	-0.007225142
124	0xbc406819	-0.011743569
125	0x3cf5e0c2	0.0300144
126	0x3ca8b03f	0.020591853
127	0x3cdbd3f5	0.026834467
128	0xbc45dba5	-0.012076293
129	0x3bf0927e	0.007341682
130	0x3cc75583	0.024332767
131	0x3cf57cc9	0.029966729
132	0x3bbabb22	0.0056985775
133	0x3d136976	0.035989247
134	0xbc68a616	-0.014199754
135	0xbd24cddc	-0.040235385
136	0x3b6cfdd0	0.0036162026
137	0x3c8f44e5	0.017488906
138	0x3c91d446	0.017801415
139	0xbd0af321	-0.033923272
140	0x3d1a21fa	0.03763006
141	0xbce27cad	-0.02764734
142	0x3d013009	0.03153995
143	0xbbd8c2ba	-0.00661501
144	0x3d252b7c	0.040324673
145	0x3ce181f8	0.027527794
146	0x3cf40c0e	0.029790904
147	0x3c064768	0.0081957355
148	0xbcdef69f	-0.027217207
149	0xbcb54c97	-0.022131247
150	0xbca91c2e	-0.02064332
151	0xbb320fdb	-0.0027170095
152	0xbb773b0f	-0.003772441
153	0x3c8e7e96	0.017394345
154	0xbcb7f7d1	-0.022457035
155	0xbc811e57	-0.015761537
156	0x3c082d77	0.008311621
157	0x3a15d19c	0.0005715133
158	0x3b6bba68	0.003596926
159	0xbca8cb42	-0.020604733
160	0xbc9e7dc5	-0.019347081
161	0xbc91f233	-0.017815685
162	0xbbc7b9fd	-0.0060951696
163	0x3bfa3258	0.007635396
164	0xbc7dfbd1	-0.015501932
165	0xbcce5caf	-0.02519068
166	0x3b9b769c	0.004744364
167	0x3d3f0879	0.04663894
168	0x3d0a84c2	0.033818014
169	0xbb03be96	-0.0020102612
170	0xbcbb9414	-0.022897758
171	0x3bb79ee9	0.0056036604
172	0xbcd63ffc	-0.026153557
173	0xbcaafb61	-0.02087182
174	0x3b9620f4	0.004581565
175	0x3c5f9fa8	0.013648905
176	0xbc98268c	-0.018573068
177	0x3b0a0c8c	0.0021064607
178	0x3b68b1ec	0.003550644
179	0xbbd03637	-0.006354119
180	0x3c406742	0.011743369
181	0x3c7e0e7c	0.015506383
182	0xbc89aece	-0.016806986
183	0xba223536	-0.00061877386
184	0xbccb225d	-0.02479666
185	0xbc56c55c	-0.013108578
186	0xbcd65684	-0.0261643
187	0xbcaf4ff3	-0.021400427
188	0xbc836cac	-0.01604303
189	0x3a1f513f	0.0006077475
190	0x3b73da7f	0.0037209091
191	0x3b96cca4	0.004602032
192	0x3cd6de26	0.026228976
193	0x3c3713cf	0.011174156
194	0x3b159ada	0.0022827894
195	0x3c4a053b	0.012330349
196	0xbc6efc5c	-0.014586534
197	0x3aa79a48	0.0012787068
198	0x3c147ced	0.009062988
199	0x3d091f31	0.033477012
200	0x3cdb07ed	0.026737178
201	0xbd01f633	-0.031728934
202	0xba73bec6	-0.0009298142
203	0x3cf86541	0.03032172
204	0x3b893431	0.00418713
205	0xbd0c7d05	-0.034298915
206	0x3cbebe31	0.02328405
207	0xbceeb390	-0.029138356
208	0xbce36aac	-0.027760826
209	0xbce1c696	-0.027560513
210	0x3d02d6c7	0.03194311
211	0x3ce6d3ad	0.028177107
212	0xbc6b0d54	-0.014346439
213	0x3be0d845	0.006861719
214	0x3b4cda5f	0.003125809
215	0xbd01b126	-0.031663083
216	0xbc568092	-0.013092177
217	0xbbfa4d67	-0.0076386216
218	0x3b834207	0.004005674
219	0xbbc79d86	-0.0060917763
220	0x3d13ed03	0.036114704
221	0xbc815004	-0.015785225
222	0xbc392649	-0.011300632
223	0x3c28a0f4	0.01029228
224	0x3bc4bf79	0.0060042706
225	0xbbcb7f82	-0.0062102685
226	0xbc97b456	-0.018518608
227	0x3c8654db	0.016397884
228	0x3c8f7c44	0.01751531
229	0x3afd4282	0.0019322189
230	0xbb014666	-0.0019725799
231	0x3cf30166	0.029663753
232	0x3b67600d	0.0035305053
233	0xbc310d56	-0.010806402
234	0xbca42ace	-0.020039942
235	0x3c9007d9	0.017581867
236	0xbcb97a0e	-0.022641208
237	0x3c541096	0.0129434075
238	0xbc281f8f	-0.01026143
239	0x3c7c24ba	0.015389616
240	0x3c3a0b43	0.011355224
241	0x3ca5263e	0.020159837
242	0xbc51cca2	-0.012805136
243	0xbcad3ee1	-0.021148147
244	0x3b2b7e18	0.0026167687
245	0xbc90cb3a	-0.017675031
246	0x3c5d124e	0.013493134
247	0xbaf8a5ab	-0.0018970271
248	0xb9663179	-0.0002195294
249	0x3cfd13dc	0.030893259
250	0xbca8accc	-0.020590208
251	0x3d00cb8a	0.03144411
252	0x3c675d66	0.014121389
253	0xbc94db95	-0.018171111
254	0x3cfbb774	0.030727126
255	0xbbf16aae	-0.0073674535

conv5.bias f4 [32]
0	0xbc4bf555	-0.012448628
1	0xbd0d3db4	-0.034482673
2	0x3c46caea	0.012133339
3	0xbcfc3ebc	-0.030791633
4	0xbcb0fdc9	-0.02160539
5	0x3d1fd775	0.039023835
6	0x3d0a5ef7	0.03378197
7	0x3d0af23c	0.03392242
8	0xbb06db44	-0.002057747
9	0x3ceff74c	0.029292725
10	0x3d163a2e	0.03667658
11	0xbc8cd3e6	-0.017190885
12	0xbbcc08ef	-0.006226651
13	0xbcb30cfd	-0.02185678
14	0xbc3ba84b	-0.011453698
15	0xbd8df7b7	-0.069320135
16	0x3c970c87	0.01843859
17	0x3c132b07	0.0089824265
18	0x3d1a6723	0.037696015
19	0x3cc69312	0.02424005
20	0x3c5a52e3	0.013325426
21	0x3d6cf40a	0.05784992
22	0x3d27e874	0.04099317
23	0xbce829c5	-0.02834023
24	0x3c4568a5	0.012048875
25	0x3c4c44b8	0.012467556
26	0xbc22b2db	-0.009930338
27	0xbc842ad6	-0.016133707
28	0xbd035785	-0.032065887
29	0xbc9c55bf	-0.019083856
30	0x3aa57559	0.0012623473
31	0xbc832d19	-0.016012715

conv6.weight f4 [32, 32, 3, 3]
0	0xbd08c041	-0.033386473
1	0xbc3784a5	-0.0112010585
2	0x3c93fbf8	0.018064484
3	0x3ccd97d7	0.025096817
4	0xbd2a82cf	-0.041628655
5	0xbc8c6311	-0.017137082
6	0x3d75a631	0.059972946
7	0xbd82def1	-0.06390179
8	0x3d42e890	0.04758507
9	0x3d37d4d7	0.044880714
10	0xbc5b38f5	-0.013380279
11	0x3d72da1c	0.059290037
12	0x3d5c2b78	0.053752393
13	0x3d0cc973	0.034371804
14	0xbd304686	-0.043036006
15	0xbbebc5a9	-0.007195194
16	0xbc44968e	-0.011998786
17	0x3cd85f20	0.026412547
18	0x3d620f93	0.055190634
19	0xbd4f9386	-0.0506778
20	0xbc8a7563	-0.016901677
21	0xbd5cbd09	-0.053891215
22	0x3c9bcb68	0.01901789
23	0x3a68a75f	0.0008875038
24	0x3d552bce	0.05204373
25	0xbc0c0a19	-0.008547329
26	0x3d1ef421	0.03880704
27	0xbd30ac11	-0.043132845
28	0x3bf935be	0.0076052835
29	0x3cd960ae	0.026535358
30	0xbc98e727	-0.01866491
31	0x3cee95b1	0.029124113
32	0xbd2ecb9a	-0.04267464
33	0x3d51e9e2	0.05124844
34	0x3d102a24	0.03519644
35	0xbd1c937f	-0.0382266
36	0xbd413dab	-0.04717795
37	0xbc496a8c	-0.012293469
38	0xbd281c34	-0.04104252
39	0x3ca2f3c1	0.019891622
40	0x3ab2010f	0.0013580638
41	0x3d565826	0.05233016
42	0xbd1101ed	-0.035402227
43	0x3c463649	0.0120979035
44	0x3d1b9902	0.037987716
45	0xbd09beb8	-0.03362915
46	0x3ce34c21	0.027746262
47	0xbb71a2db	-0.003687075
48	0x3d48de15	0.04903992
49	0x3d3200f4	0.04345794
50	0x3c8319a3	0.016003435
51	0x3cf517f2	0.029918645
52	0x3d2e3e66	0.042539977
53	0x3c4f038a	0.012635121
54	0x3ce7673a	0.028247464
55	0x3cb0bcb6	0.02157436
56	0x3cd1ea87	0.025624527
57	0x3d70c0a5	0.05877747
58	0x3ca33469	0.019922452
59	0xbc6011fb	-0.013676162
60	0x3d2af853	0.041740727
61	0x3c9e1b14	0.019300021
62	0xbd6a522d	-0.057207275
63	0xbca72758	-0.020404503
64	0x3d1bdcc8	0.03805235
65	0xbd425ce2	-0.04745186
66	0x3cf3d785	0.029765854
67	0xbd1ecb4b	-0.038768094
68	0xbbaf36f2	-0.005347126
69	0xbba59a3c	-0.0050537866
70	0xbcd83f3f	-0.026397346
71	0x3cbe4906	0.02322818
72	0x3d3036e7	0.04302111
73	0x3cddd4db	0.027079036
74	0x3d0c3269	0.034227762
75	0xbd3db197	-0.04631194
76	0x3d52cfd8	0.051467746
77	0xbd0fa3a2	-0.03506816
78	0x3ce2227b	0.027604332
79	0xbcd40569	-0.025881486
80	0xbd3a13ec	-0.045429155
81	0x3d3c67a7	0.045997288
82	0x3cbdd987	0.023175014
83	0x3d84efea	0.064910725
84	0x3c484af2	0.0122249
85	0x3c9982e7	0.018739177
86	0x3a841fe8	0.001008031
87	0x3c9ecd70	0.01938507
88	0x3d5ed751	0.05440456
89	0xbcc1ee89	-0.023673313
90	0xbc80ebd8	-0.015737459
91	0xbc5582d8	-0.013031684
92	0x3c8c81cc	0.017151736
93	0xbd88142b	-0.06644472
94	0x3c2db140	0.010601342
95	0xbd3d7231	-0.04625148
96	0x3c732079	0.014839285
97	0xbcde1c5b	-0.02711313
98	0xbcf9a3ca	-0.030473609
99	0x3d2e6f11	0.04258639
100	0xbbb2887c	-0.005448399
101	0xbc49fa85	-0.012327795
102	0x3b810a68	0.003938008
103	0xbcb452f6	-0.022012215
104	0xbb27f127	-0.0025625916
105	0x3c6160bb	0.0137559725
106	0x3daca364	0.08429602
107	0x3d5454df	0.051838752
108	0xbd575ca8	-0.0525786
109	0xbd3c33da	-0.045947887
110	0xbd4badc7	-0.049726274
111	0x3a767acf	0.0009402455
112	0xbd313eee	-0.043272905
113	0x3bbaac34	0.0056967977
114	0x3c89ff38	0.01684533
115	0xbcde586c	-0.027141772
116	0x3b9c68c9	0.0047732336
117	0x3c98047a	0.018556822
118	0xbcdece7d	-0.02719807
119	0xbd855039	-0.06509442
120	0xbbedee8d	-0.0072611035
121	0xbd0e1baf	-0.03469437
122	0xbd1a2901	-0.03763676
123	0x3ce6107b	0.02808403
124	0x3c8ed066	0.017433356
125	0x3d2173a1	0.039416913
126	0x3d617dfc	0.05505179
127	0xbd157d14	-0.036496237
128	0x3c9a665f	0.018847642
129	0x3a07e984	0.0005184638
130	0x3d6f241a	0.05838404
131	0xbcc8bd24	-0.024504252
132	0xbd2400c2	-0.040039785
133	0x3d393d29	0.045224342
134	0xbc4c2dc4	-0.012462083
135	0x3c063c50	0.008193091
136	0x3cc1e6d5	0.02366964
137	0x3bd5f243	0.006529124
138	0x3cdb6017	0.026779218
139	0x3ccf1fb0	0.025283664
140	0xbc83dd52	-0.016096745
141	0xbd380368	-0.044925123
142	0x3d5af68b	0.053457778
143	0xbd3abf3c	-0.04559253
144	0x3c907900	0.017635822
145	0xbcbf3bec	-0.023344003
146	0xbc7da46e	-0.015481098
147	0xbc0be147	-0.008537597
148	0x3a9c75b2	0.0011936931
149	0xbacc4e9e	-0.0015587395
150	0x3b9adebb	0.0047262586
151	0x3d5f32c6	0.05449178
152	0x3d066cc9	0.03281859
153	0xbca3452b	-0.019930443
154	0xbc7944a0	-0.015214115
155	0xbc27480b	-0.0102100475
156	0x3d08bb01	0.033381466
157	0xbb1609c5	-0.0022894007
158	0xbd1165b1	-0.03549737
159	0x3d2ffcad	0.04296558
160	0xbd10db03	-0.035365116
161	0xbd148232	-0.036256976
162	0x3c847c97	0.01617269
163	0xbd19752d	-0.037465263
164	0xbbb19593	-0.005419442
165	0x3d3f082c	0.046638653
166	0x3d7b2462	0.061313994
167	0xbca86117	-0.020554109
168	0xbd643b24	-0.055720463
169	0xbd263306	-0.040576003
170	0x3ce7b7e3	0.028285926
171	0xbd52599d	-0.051354993
172	0xbccdb707	-0.025111688
173	0xbd7c6f9c	-0.061629876
174	0x3d5d30a9	0.054001484
175	0xbd6f9eac	-0.05850093
176	0x3c6854f9	0.014180415
177	0xba414f41	-0.00073741755
178	0x3d271eb7	0.040800776
179	0x3d1160c0	0.03549266
180	0x3d2bb082	0.041916378
181	0xbd5e29da	-0.05423913
182	0x3d269e08	0.040678054
183	0xbd597cbd	-0.053097475
184	0x3bb82a6e	0.0056202924
185	0xbc9d4e9d	-0.019202525
186	0xbd44dd51	-0.048062626
187	0x3cba5e6a	0.022750098
188	0xbc7637e6	-0.015027976
189	0x3d49550e	0.04915338
190	0xbd08f474	-0.033436254
191	0xbd2c2106	-0.04202368
192	0xbd305a65	-0.043054957
193	0xbc3ff293	-0.011715549
194	0xbd2a1d16	-0.041531645
195	0xbcebc569	-0.028780656
196	0x3d6d7ed5	0.057982285
197	0x3c7b1e5d	0.015327063
198	0x3d329b17	0.043604936
199	0x3c9ef036	0.01940165
200	0xbb4fbf42	-0.0031699692
201	0xbbf46e76	-0.007459457
202	0x3cf96f20	0.030448496
203	0x3bec0369	0.007202555
204	0x3b8b9f42	0.0042609284
205	0x3d7574c0	0.059925795
206	0xbca497cb	-0.020091912
207	0xbd25c307	-0.040469196
208	0x3c7c2d0c	0.015391599
209	0xbd06e333	-0.032931518
210	0x3cfafe3b	0.030638805
211	0xbcc32a75	-0.023823956
212	0xbd6c2834	-0.05765553
213	0xbb3f6376	-0.002920357
214	0x3c08c275	0.008347143
215	0xbd2db493	-0.042408537
216	0x3c516b58	0.01278194
217	0x3d4ddf30	0.050261676
218	0xbc9ea9e4	-0.01936812
219	0xbd37529a	-0.04475651
220	0x3d1f21d3	0.038850617
221	0x3c9664d2	0.018358622
222	0xbd258cf5	-0.04041763
223	0xbcf2f3a0	-0.029657185
224	0x3c61c816	0.013780614
225	0x3d06ddf5	0.03292652
226	0xbce6346e	-0.028101172
227	0xbcf906e8	-0.030398801
228	0x3b86c2d5	0.0041125813
229	0xbc71203b	-0.014717157
230	0xbbdc6557	-0.006725948
231	0xbd0236d0	-0.031790555
232	0x3cc8c631	0.024508568
233	0x3ca96c15	0.02068142
234	0xbd7c3a93	-0.0615793
235	0x3d3004fd	0.042973507
236	0xbcb3d1a2	-0.021950547
237	0xbc666206	-0.014061457
238	0xbc516767	-0.012781001
239	0xbb8439b0	-0.004035197
240	0x3c0fb920	0.008772165
241	0x3b842915	0.0040332177
242	0xbcc66723	-0.024219101
243	0xbd40efc0	-0.047103643
244	0x3d4d64c5	0.05014493
245	0x3d4d2220	0.050081372
246	0x3d2cddd5	0.042203743
247	0xbc46eaf8	-0.012140982
248	0x3c658782	0.014009358
249	0x3c4cd898	0.012502812
250	0x3d91ba82	0.07115652
251	0x3c6be52b	0.0143979
252	0x3c9378f2	0.018002007
253	0x3cbb666d	0.022875989
254	0xbcbbb82a	-0.022914965
255	0x3c12989b	0.008947517

conv6.bias f4 [32]
0	0x3d0c71bc	0.034288153
1	0x3b27c7b1	0.0025601203
2	0x3cc6889a	0.024235059
3	0xba18ff36	-0.0005836369
4	0xbdc4c82c	-0.09608492
5	0x3d0ab31c	0.03386222
6	0xbd86ca11	-0.0658151
7	0x3c9fe5d6	0.019518774
8	0xbd8bad7c	-0.06820199
9	0x3cd8c69e	0.026461896
10	0x3d1fa28d	0.03897338
11	0xbcbd0656	-0.02307431
12	0xbd9de3e2	-0.07709481
13	0x3c8c9398	0.017160222
14	0xb9512fee	-0.00019949648
15	0xbd80c77e	-0.0628805
16	0xbb2bc321	-0.0026208835
17	0xbcdb1421	-0.026742997
18	0x3d00c80d	0.031440783
19	0xbd95071c	-0.07276747
20	0xbd4ae8a6	-0.049538277
21	0xbbd69d9b	-0.0065495498
22	0xbd8536b0	-0.065045714
23	0x3c8a8a3c	0.016911618
24	0x3cdbd03f	0.026832698
25	0xbd208bd7	-0.03919586
26	0x3d27d8c6	0.040978216
27	0xbd9f6495	-0.077828564
28	0xbdca764b	-0.09885844
29	0xbc8d8fcc	-0.017280482
30	0xbcf72a79	-0.03017162
31	0xbd0ebce1	-0.034848098

conv7.weight f4 [8, 32, 3, 9]
0	0xbbe52017	-0.006992351
1	0xbce73a4b	-0.028226038
2	0xbce1bb93	-0.027555263
3	0x3c983408	0.018579498
4	0x3c54fd38	0.012999825
5	0xbcbba2cf	-0.022904782
6	0x3c96e89e	0.018421467
7	0x3c1eb8ee	0.009687645
8	0x3bf78dfc	0.0075547677
9	0xbb034145	-0.0020027917
10	0x3cb6e696	0.022326749
11	0xbb9f8e96	-0.0048692925
12	0x3cbb4131	0.022858234
13	0xbc641101	-0.01392007
14	0xbcaafa39	-0.020871269
15	0x3c3e8f8f	0.011630907
16	0x3cb71189	0.022347229
17	0xbcc8aaf0	-0.024495572
18	0xbb74136e	-0.0037243026
19	0x3ce0ed9d	0.027457053
20	0xbcaa73f4	-0.020807244
21	0x3c8f5324	0.0174957
22	0xbcb05c2c	-0.021528326
23	0xbca4273e	-0.020038243
24	0x3c03f70f	0.008054509
25	0x3cabb8b5	0.020962099
26	0xbadf5a49	-0.0017040457
27	0x3cdadcc8	0.026716605
28	0x3cf2145d	0.029550726
29	0xbb53bdb6	-0.0032309121
30	0x3d2d3636	0.042288028
31	0x3ce9cc4f	0.028539805
32	0x3cdf7d09	0.027281301
33	0x3cd3806d	0.025818074
34	0xbccadb2a	-0.024762709
35	0x3c9ac3fc	0.01889228
36	0x3d23747b	0.039906006
37	0x3ce68042	0.02813733
38	0x3c8de94c	0.017323159
39	0xbd1bdfb7	-0.038055148
40	0x3c3c15c5	0.0114798
41	0x3c7dae09	0.015483388
42	0xbcda1e28	-0.026625708
43	0xbcd730d1	-0.026268395
44	0x3da268ef	0.07930171
45	0x3a9574e5	0.0011402635
46	0xbc02cf2d	-0.007983965
47	0xbb0d74a5	-0.0021584418
48	0x3ccea721	0.025226178
49	0xb868d53e	-5.5511708e-05
50	0xbb0375f3	-0.0020059317
51	0x3cc2b908	0.02376987
52	0xbc800bd3	-0.015630638
53	0xbd5d1672	-0.053976484
54	0xbc657762	-0.014005514
55	0x3cadeecc	0.021232031
56	0xbc80aeef	-0.015708415
57	0x3b732841	0.003710285
58	0xbbc20316	-0.005920778
59	0xbcaab086	-0.020836126
60	0x3cdea29c	0.027177148
61	0xbcb90326	-0.02258451
62	0xbb8be5ae	-0.0042693233
63	0xbbf7d3e7	-0.0075631025
64	0xbcd2009d	-0.025635058
65	0x3bbbcb47	0.0057310197
66	0xbcaa84a9	-0.02081521
67	0xbcb7e60f	-0.022448568
68	0x3c0963c3	0.008385601
69	0xbb9833b9	-0.0046448377
70	0x3c068ddd	0.008212534
71	0x3c448f66	0.0119970795
72	0x3cdba7f1	0.02681348
73	0xbcddf046	-0.02709211
74	0x3b70b96e	0.0036731618
75	0xbcee4229	-0.029084282
76	0x3c92532a	0.017861921
77	0x3c9ab46c	0.01888486
78	0xbb714869	-0.0036816841
79	0x3cb1ce4a	0.021704812
80	0xbd1f27d3	-0.03885634
81	0x3d1c738b	0.038196128
82	0x3ce0de7a	0.027449835
83	0xb989cab6	-0.00026281708
84	0xbb8cc1eb	-0.0042955778
85	0x3b8f1334	0.004366303
86	0x3c74148c	0.014897477
87	0xbc84442b	-0.016145786
88	0x3a53744e	0.0008066342
89	0xbc4c6bfe	-0.012476919
90	0x3cb61746	0.022227895
91	0x3cd2731b	0.025689652
92	0x3d064472	0.03278012
93	0x3cafb165	0.021446893
94	0xbcce3cb4	-0.02517543
95	0xbc5e6007	-0.013572699
96	0xbbaf3698	-0.0053470843
97	0x3d14e3ab	0.036349934
98	0xbd09ed38	-0.033673495
99	0xbd08f85c	-0.03343998
100	0x3b45f0c8	0.0030203331
101	0xba7aa7a3	-0.0009561723
102	0x3c17ef09	0.009273299
103	0xbce0ed86	-0.02745701
104	0xbcfe1d62	-0.03101987
105	0xbd3a99f5	-0.04555698
106	0xbb7e212b	-0.0038777094
107	0xbd634e45	-0.055494566
108	0xbd02c4da	-0.031926014
109	0xbccd4a1a	-0.025059748
110	0xbbf48074	-0.007461602
111	0xbcdc3c9c	-0.02688437
112	0xbd072fb7	-0.03300449
113	0xbc9858d3	-0.018597042
114	0x3b89efcc	0.004209494
115	0xbabc0e28	-0.0014347481
116	0x3c2dc9c1	0.010607184
117	0x3ba3bcb3	0.00499686
118	0x3bc3f8ee	0.0059806025
119	0xbc24bef4	-0.010055292
120	0x3d0a232d	0.033724952
121	0x3d81f4c1	0.06345511
122	0x3cb35a73	0.021893715
123	0x3c36a10e	0.011146797
124	0x3cd8031f	0.026368676
125	0x3c215300	0.009846449
126	0xba09222a	-0.0005231226
127	0xbd31ed38	-0.04343912
128	0x3a72cdf3	0.0009262256
129	0x3bf04327	0.007332224
130	0x3cdc668c	0.026904367
131	0x3cdf5f51	0.02726713
132	0x3d0a2acc	0.03373222
133	0xbc906946	-0.017628323
134	0x3b6c4a50	0.0036055036
135	0x3c2405c3	0.010011139
136	0x3d0e1184	0.034684673
137	0xbcc446d1	-0.02395955
138	0x3c3354fc	0.010945555
139	0xbd13e7f0	-0.036109865
140	0xbd0adf10	-0.033904135
141	0xbc1a6af3	-0.009424913
142	0x3b2fb1e0	0.0026808903
143	0x3c973192	0.018456254
144	0x3c09caf2	0.008410202
145	0xbc9505a6	-0.01819117
146	0x3c83094e	0.015995648
147	0xbb73ca75	-0.0037199531
148	0xbcbbcd76	-0.02292512
149	0xbc4cea1f	-0.012506991
150	0xbcdf8650	-0.027285725
151	0xbc9cd257	-0.019143267
152	0xbbe67393	-0.0070328205
153	0x3c4a29c6	0.012339061
154	0x3caa20d0	0.0207676
155	0x3bfe6de1	0.0077645634
156	0xbc083dea	-0.008315543
157	0xbb88ba2b	-0.0041725836
158	0xbc9edcdc	-0.019392423
159	0x3913bab8	0.0001408857
160	0x3c4437be	0.011976181
161	0xbd2203e5	-0.039554495
162	0x3cefceae	0.029273357
163	0x3b46adf1	0.003031608
164	0xbcc85402	-0.02445412
165	0xbc0f2e7a	-0.008739108
166	0x3c619bc8	0.013770051
167	0x3cdee575	0.027209023
168	0xbcffea3b	-0.03123962
169	0x3c8aef6a	0.016959865
170	0x3c8bc12c	0.017059885
171	0x3c89e883	0.016834503
172	0xbca69843	-0.020336276
173	0x3c2f8478	0.010712735
174	0xbcb9b298	-0.022668168
175	0xbaa67710	-0.0012700278
176	0xbc6aa2db	-0.014321054
177	0x3cc60e45	0.024176726
178	0x3be8f310	0.0071090534
179	0x3ceecc63	0.029150194
180	0x3d83ac18	0.06429309
181	0x3c5b7635	0.013394882
182	0xbbdc1991	-0.006716915
183	0xbb7b6919	-0.0038362204
184	0x3d14c3f8	0.036319703
185	0xbc6bc601	-0.0143904695
186	0x3c0987b6	0.008394172
187	0xbca1a51d	-0.019732052
188	0xbc13abf2	-0.009013163
189	0xbcc305ee	-0.023806538
190	0xbb219bb5	-0.002465946
191	0xbd63973f	-0.05556416
192	0xbca319f1	-0.01990983
193	0xbd031150	-0.031998932
194	0xbbe5ec44	-0.0070166904
195	0x3c762af6	0.015024891
196	0x3d3415d3	0.043966126
197	0xbc2c83fd	-0.010529515
198	0x3b29e099	0.0025921224
199	0x3ba1045a	0.004913849
200	0x3c0e4a9b	0.0086847795
201	0x3c7e3b48	0.015517063
202	0xbc4c514d	-0.0124705555
203	0xbd1d3024	-0.03837599
204	0x3c1193ca	0.008885333
205	0xbc9bf7f8	-0.01903914
206	0x3cc34dc8	0.0238408
207	0x3c82ccd5	0.015966812
208	0x3cdc39d7	0.026883049
209	0x3c971060	0.018440425
210	0xbceafac4	-0.028684027
211	0xbb85159f	-0.0040614153
212	0x3bacdc02	0.0052752504
213	0xbcc76dfe	-0.02434444
214	0xba93c1a8	-0.0011272924
215	0xbc830319	-0.015992688
216	0x3cfaf888	0.030636087
217	0xbcb084b6	-0.021547657
218	0xbce30cc6	-0.027716052
219	0xbd0db98b	-0.034600776
220	0x3c9fb6be	0.019496318
221	0x3a03fc88	0.00050348835
222	0xbc387ae1	-0.011259765
223	0x3bc51081	0.0060139303
224	0xbcda2616	-0.026629489
225	0x3c34b4a9	0.011029401
226	0x3caf6ba7	0.021413637
227	0xbc739f05	-0.014869456
228	0x3c9cf7e6	0.019161176
229	0x3c7fe4b4	0.015618492
230	0x3b25ec28	0.0025317762
231	0x3cacd534	0.021097757
232	0x3cc1f3cd	0.023675824
233	0xbd06bb89	-0.03289369
234	0xbb724327	-0.0036966295
235	0x3c16745f	0.0091830185
236	0x3c915741	0.017741801
237	0xbc7156e5	-0.01473019
238	0xbc81eae6	-0.015859079
239	0x3bc46231	0.0059931506
240	0x3c1a5f89	0.009422191
241	0x3cb784f5	0.022402266
242	0xbc973843	-0.018459445
243	0xba99a123	-0.0011720996
244	0x3c13cb53	0.009020644
245	0xbc63557b	-0.013875361
246	0xbd0fe153	-0.035126995
247	0xbd02362e	-0.03178995
248	0xbcb50d51	-0.022101076
249	0x3bf75871	0.007548385
250	0x3b326f4f	0.002722699
251	0xbd03a107	-0.03213599
252	0xbc5a016e	-0.013306005
253	0xbc4fbb60	-0.012678951
254	0xbcbd8da4	-0.023138829
255	0x3cf2b00c	0.029624961

conv7.bias f4 [8]
0	0xbddea021	-0.10870386
1	0xbd12c186	-0.03582909
2	0xbcaefd19	-0.02136092
3	0x3d005163	0.031327616
4	0xbb9cd766	-0.0047864197
5	0x3db40932	0.08790816
6	0xbc15d310	-0.0091445595
7	0xbb13ef6b	-0.0022573124
